#final size:235
#det-ver:rsa-res-v3
#align-ver:affine-v1
#crop:110
#offsety:12
#batchsize:640
name: "IRv1"

mem_param {
  optimize_train: false
}
#----------------------------------------- start ----------------------------------------
input: "data"
input_dim: 1
input_dim: 3
input_dim: 235
input_dim: 235

input: "label"
input_dim: 1
input_dim: 1
input_dim: 1
input_dim: 1

layer {
  name: "stem.step1.3x3.1.conv"
  type: "Convolution"
  bottom: "data"
  top: "stem.step1.3x3.1.conv"
  param {
    lr_mult: 1.0
    decay_mult: 1.0
  }
  convolution_param {
    num_output: 32
    bias_term: false
    weight_filler {
      type: "xavier"
    }
    bias_filler {
      type: "constant"
      value: 0.0
    }
    pad_h: 0
    pad_w: 0
    kernel_h: 3
    kernel_w: 3
    stride_h: 2
    stride_w: 2
  }
}
layer {
  name: "stem.step1.3x3.1.bn"
  type: "BN"
  bottom: "stem.step1.3x3.1.conv"
  top: "stem.step1.3x3.1"
  param {
    lr_mult: 1.0
    decay_mult: 0.0
  }
  param {
    lr_mult: 1.0
    decay_mult: 0.0
  }
  param {
    lr_mult: 0.0
    decay_mult: 0.0
  }
  param {
    lr_mult: 0.0
    decay_mult: 0.0
  }
  bn_param {
    sync_forward: false
    moving_average: true
    decay: 0.99
    scale_filler {
      type: "constant"
      value: 1.0
    }
    shift_filler {
      type: "constant"
      value: 0.0
    }
  }
}
layer {
  name: "stem.step1.3x3.1.relu"
  type: "ReLU"
  bottom: "stem.step1.3x3.1"
  top: "stem.step1.3x3.1"
}
layer {
  name: "stem.step1.3x3.2.conv"
  type: "Convolution"
  bottom: "stem.step1.3x3.1"
  top: "stem.step1.3x3.2.conv"
  param {
    lr_mult: 1.0
    decay_mult: 1.0
  }
  convolution_param {
    num_output: 32
    bias_term: false
    weight_filler {
      type: "xavier"
    }
    bias_filler {
      type: "constant"
      value: 0.0
    }
    pad_h: 0
    pad_w: 0
    kernel_h: 3
    kernel_w: 3
    stride_h: 1
    stride_w: 1
  }
}
layer {
  name: "stem.step1.3x3.2.bn"
  type: "BN"
  bottom: "stem.step1.3x3.2.conv"
  top: "stem.step1.3x3.2"
  param {
    lr_mult: 1.0
    decay_mult: 0.0
  }
  param {
    lr_mult: 1.0
    decay_mult: 0.0
  }
  param {
    lr_mult: 0.0
    decay_mult: 0.0
  }
  param {
    lr_mult: 0.0
    decay_mult: 0.0
  }
  bn_param {
    sync_forward: false
    moving_average: true
    decay: 0.99
    scale_filler {
      type: "constant"
      value: 1.0
    }
    shift_filler {
      type: "constant"
      value: 0.0
    }
  }
}
layer {
  name: "stem.step1.3x3.2.relu"
  type: "ReLU"
  bottom: "stem.step1.3x3.2"
  top: "stem.step1.3x3.2"
}
layer {
  name: "stem.step1.3x3.3.conv"
  type: "Convolution"
  bottom: "stem.step1.3x3.2"
  top: "stem.step1.3x3.3.conv"
  param {
    lr_mult: 1.0
    decay_mult: 1.0
  }
  convolution_param {
    num_output: 64
    bias_term: false
    weight_filler {
      type: "xavier"
    }
    bias_filler {
      type: "constant"
      value: 0.0
    }
    pad_h: 1
    pad_w: 1
    kernel_h: 3
    kernel_w: 3
    stride_h: 1
    stride_w: 1
  }
}
layer {
  name: "stem.step1.3x3.3.bn"
  type: "BN"
  bottom: "stem.step1.3x3.3.conv"
  top: "stem.step1.3x3.3"
  param {
    lr_mult: 1.0
    decay_mult: 0.0
  }
  param {
    lr_mult: 1.0
    decay_mult: 0.0
  }
  param {
    lr_mult: 0.0
    decay_mult: 0.0
  }
  param {
    lr_mult: 0.0
    decay_mult: 0.0
  }
  bn_param {
    sync_forward: false
    moving_average: true
    decay: 0.99
    scale_filler {
      type: "constant"
      value: 1.0
    }
    shift_filler {
      type: "constant"
      value: 0.0
    }
  }
}
layer {
  name: "stem.step1.3x3.3.relu"
  type: "ReLU"
  bottom: "stem.step1.3x3.3"
  top: "stem.step1.3x3.3"
}
layer {
  name: "stem.step1.pool"
  type: "Pooling"
  bottom: "stem.step1.3x3.3"
  top: "stem.step1.pool"
  pooling_param {
    pool: MAX
    kernel_h: 3
    kernel_w: 3
    stride_h: 2
    stride_w: 2
    pad_h: 0
    pad_w: 0
  }
}
layer {
  name: "stem.step1.3x3.conv"
  type: "Convolution"
  bottom: "stem.step1.3x3.3"
  top: "stem.step1.3x3.conv"
  param {
    lr_mult: 1.0
    decay_mult: 1.0
  }
  convolution_param {
    num_output: 96
    bias_term: false
    weight_filler {
      type: "xavier"
    }
    bias_filler {
      type: "constant"
      value: 0.0
    }
    pad_h: 0
    pad_w: 0
    kernel_h: 3
    kernel_w: 3
    stride_h: 2
    stride_w: 2
  }
}
layer {
  name: "stem.step1.3x3.bn"
  type: "BN"
  bottom: "stem.step1.3x3.conv"
  top: "stem.step1.3x3"
  param {
    lr_mult: 1.0
    decay_mult: 0.0
  }
  param {
    lr_mult: 1.0
    decay_mult: 0.0
  }
  param {
    lr_mult: 0.0
    decay_mult: 0.0
  }
  param {
    lr_mult: 0.0
    decay_mult: 0.0
  }
  bn_param {
    sync_forward: false
    moving_average: true
    decay: 0.99
    scale_filler {
      type: "constant"
      value: 1.0
    }
    shift_filler {
      type: "constant"
      value: 0.0
    }
  }
}
layer {
  name: "stem.step1.3x3.relu"
  type: "ReLU"
  bottom: "stem.step1.3x3"
  top: "stem.step1.3x3"
}
layer {
  name: "stem.step1.concat"
  type: "Concat"
  bottom: "stem.step1.pool"
  bottom: "stem.step1.3x3"
  top: "stem.step1.concat"
}
layer {
  name: "stem.step2.short.1x1.conv"
  type: "Convolution"
  bottom: "stem.step1.concat"
  top: "stem.step2.short.1x1.conv"
  param {
    lr_mult: 1.0
    decay_mult: 1.0
  }
  convolution_param {
    num_output: 64
    bias_term: false
    weight_filler {
      type: "xavier"
    }
    bias_filler {
      type: "constant"
      value: 0.0
    }
    pad_h: 0
    pad_w: 0
    kernel_h: 1
    kernel_w: 1
    stride_h: 1
    stride_w: 1
  }
}
layer {
  name: "stem.step2.short.1x1.bn"
  type: "BN"
  bottom: "stem.step2.short.1x1.conv"
  top: "stem.step2.short.1x1"
  param {
    lr_mult: 1.0
    decay_mult: 0.0
  }
  param {
    lr_mult: 1.0
    decay_mult: 0.0
  }
  param {
    lr_mult: 0.0
    decay_mult: 0.0
  }
  param {
    lr_mult: 0.0
    decay_mult: 0.0
  }
  bn_param {
    sync_forward: false
    moving_average: true
    decay: 0.99
    scale_filler {
      type: "constant"
      value: 1.0
    }
    shift_filler {
      type: "constant"
      value: 0.0
    }
  }
}
layer {
  name: "stem.step2.short.1x1.relu"
  type: "ReLU"
  bottom: "stem.step2.short.1x1"
  top: "stem.step2.short.1x1"
}
layer {
  name: "stem.step2.short.3x3.conv"
  type: "Convolution"
  bottom: "stem.step2.short.1x1"
  top: "stem.step2.short.3x3.conv"
  param {
    lr_mult: 1.0
    decay_mult: 1.0
  }
  convolution_param {
    num_output: 96
    bias_term: false
    weight_filler {
      type: "xavier"
    }
    bias_filler {
      type: "constant"
      value: 0.0
    }
    pad_h: 0
    pad_w: 0
    kernel_h: 3
    kernel_w: 3
    stride_h: 1
    stride_w: 1
  }
}
layer {
  name: "stem.step2.short.3x3.bn"
  type: "BN"
  bottom: "stem.step2.short.3x3.conv"
  top: "stem.step2.short.3x3"
  param {
    lr_mult: 1.0
    decay_mult: 0.0
  }
  param {
    lr_mult: 1.0
    decay_mult: 0.0
  }
  param {
    lr_mult: 0.0
    decay_mult: 0.0
  }
  param {
    lr_mult: 0.0
    decay_mult: 0.0
  }
  bn_param {
    sync_forward: false
    moving_average: true
    decay: 0.99
    scale_filler {
      type: "constant"
      value: 1.0
    }
    shift_filler {
      type: "constant"
      value: 0.0
    }
  }
}
layer {
  name: "stem.step2.short.3x3.relu"
  type: "ReLU"
  bottom: "stem.step2.short.3x3"
  top: "stem.step2.short.3x3"
}
layer {
  name: "stem.step2.long.1x1.conv"
  type: "Convolution"
  bottom: "stem.step1.concat"
  top: "stem.step2.long.1x1.conv"
  param {
    lr_mult: 1.0
    decay_mult: 1.0
  }
  convolution_param {
    num_output: 64
    bias_term: false
    weight_filler {
      type: "xavier"
    }
    bias_filler {
      type: "constant"
      value: 0.0
    }
    pad_h: 0
    pad_w: 0
    kernel_h: 1
    kernel_w: 1
    stride_h: 1
    stride_w: 1
  }
}
layer {
  name: "stem.step2.long.1x1.bn"
  type: "BN"
  bottom: "stem.step2.long.1x1.conv"
  top: "stem.step2.long.1x1"
  param {
    lr_mult: 1.0
    decay_mult: 0.0
  }
  param {
    lr_mult: 1.0
    decay_mult: 0.0
  }
  param {
    lr_mult: 0.0
    decay_mult: 0.0
  }
  param {
    lr_mult: 0.0
    decay_mult: 0.0
  }
  bn_param {
    sync_forward: false
    moving_average: true
    decay: 0.99
    scale_filler {
      type: "constant"
      value: 1.0
    }
    shift_filler {
      type: "constant"
      value: 0.0
    }
  }
}
layer {
  name: "stem.step2.long.1x1.relu"
  type: "ReLU"
  bottom: "stem.step2.long.1x1"
  top: "stem.step2.long.1x1"
}
layer {
  name: "stem.step2.long.1x7.conv"
  type: "Convolution"
  bottom: "stem.step2.long.1x1"
  top: "stem.step2.long.1x7.conv"
  param {
    lr_mult: 1.0
    decay_mult: 1.0
  }
  convolution_param {
    num_output: 64
    bias_term: false
    weight_filler {
      type: "xavier"
    }
    bias_filler {
      type: "constant"
      value: 0.0
    }
    pad_h: 3
    pad_w: 0
    kernel_h: 7
    kernel_w: 1
    stride_h: 1
    stride_w: 1
  }
}
layer {
  name: "stem.step2.long.1x7.bn"
  type: "BN"
  bottom: "stem.step2.long.1x7.conv"
  top: "stem.step2.long.1x7"
  param {
    lr_mult: 1.0
    decay_mult: 0.0
  }
  param {
    lr_mult: 1.0
    decay_mult: 0.0
  }
  param {
    lr_mult: 0.0
    decay_mult: 0.0
  }
  param {
    lr_mult: 0.0
    decay_mult: 0.0
  }
  bn_param {
    sync_forward: false
    moving_average: true
    decay: 0.99
    scale_filler {
      type: "constant"
      value: 1.0
    }
    shift_filler {
      type: "constant"
      value: 0.0
    }
  }
}
layer {
  name: "stem.step2.long.1x7.relu"
  type: "ReLU"
  bottom: "stem.step2.long.1x7"
  top: "stem.step2.long.1x7"
}
layer {
  name: "stem.step2.long.7x1.conv"
  type: "Convolution"
  bottom: "stem.step2.long.1x7"
  top: "stem.step2.long.7x1.conv"
  param {
    lr_mult: 1.0
    decay_mult: 1.0
  }
  convolution_param {
    num_output: 64
    bias_term: false
    weight_filler {
      type: "xavier"
    }
    bias_filler {
      type: "constant"
      value: 0.0
    }
    pad_h: 0
    pad_w: 3
    kernel_h: 1
    kernel_w: 7
    stride_h: 1
    stride_w: 1
  }
}
layer {
  name: "stem.step2.long.7x1.bn"
  type: "BN"
  bottom: "stem.step2.long.7x1.conv"
  top: "stem.step2.long.7x1"
  param {
    lr_mult: 1.0
    decay_mult: 0.0
  }
  param {
    lr_mult: 1.0
    decay_mult: 0.0
  }
  param {
    lr_mult: 0.0
    decay_mult: 0.0
  }
  param {
    lr_mult: 0.0
    decay_mult: 0.0
  }
  bn_param {
    sync_forward: false
    moving_average: true
    decay: 0.99
    scale_filler {
      type: "constant"
      value: 1.0
    }
    shift_filler {
      type: "constant"
      value: 0.0
    }
  }
}
layer {
  name: "stem.step2.long.7x1.relu"
  type: "ReLU"
  bottom: "stem.step2.long.7x1"
  top: "stem.step2.long.7x1"
}
layer {
  name: "stem.step2.long.3x3.conv"
  type: "Convolution"
  bottom: "stem.step2.long.7x1"
  top: "stem.step2.long.3x3.conv"
  param {
    lr_mult: 1.0
    decay_mult: 1.0
  }
  convolution_param {
    num_output: 96
    bias_term: false
    weight_filler {
      type: "xavier"
    }
    bias_filler {
      type: "constant"
      value: 0.0
    }
    pad_h: 0
    pad_w: 0
    kernel_h: 3
    kernel_w: 3
    stride_h: 1
    stride_w: 1
  }
}
layer {
  name: "stem.step2.long.3x3.bn"
  type: "BN"
  bottom: "stem.step2.long.3x3.conv"
  top: "stem.step2.long.3x3"
  param {
    lr_mult: 1.0
    decay_mult: 0.0
  }
  param {
    lr_mult: 1.0
    decay_mult: 0.0
  }
  param {
    lr_mult: 0.0
    decay_mult: 0.0
  }
  param {
    lr_mult: 0.0
    decay_mult: 0.0
  }
  bn_param {
    sync_forward: false
    moving_average: true
    decay: 0.99
    scale_filler {
      type: "constant"
      value: 1.0
    }
    shift_filler {
      type: "constant"
      value: 0.0
    }
  }
}
layer {
  name: "stem.step2.long.3x3.relu"
  type: "ReLU"
  bottom: "stem.step2.long.3x3"
  top: "stem.step2.long.3x3"
}
layer {
  name: "stem.step2.concat"
  type: "Concat"
  bottom: "stem.step2.short.3x3"
  bottom: "stem.step2.long.3x3"
  top: "stem.step2.concat"
}
layer {
  name: "stem.step3.pool"
  type: "Pooling"
  bottom: "stem.step2.concat"
  top: "stem.step3.pool"
  pooling_param {
    pool: MAX
    kernel_h: 3
    kernel_w: 3
    stride_h: 2
    stride_w: 2
    pad_h: 0
    pad_w: 0
  }
}
layer {
  name: "stem.step3.3x3.conv"
  type: "Convolution"
  bottom: "stem.step2.concat"
  top: "stem.step3.3x3.conv"
  param {
    lr_mult: 1.0
    decay_mult: 1.0
  }
  convolution_param {
    num_output: 192
    bias_term: false
    weight_filler {
      type: "xavier"
    }
    bias_filler {
      type: "constant"
      value: 0.0
    }
    pad_h: 0
    pad_w: 0
    kernel_h: 3
    kernel_w: 3
    stride_h: 2
    stride_w: 2
  }
}
layer {
  name: "stem.step3.3x3.bn"
  type: "BN"
  bottom: "stem.step3.3x3.conv"
  top: "stem.step3.3x3"
  param {
    lr_mult: 1.0
    decay_mult: 0.0
  }
  param {
    lr_mult: 1.0
    decay_mult: 0.0
  }
  param {
    lr_mult: 0.0
    decay_mult: 0.0
  }
  param {
    lr_mult: 0.0
    decay_mult: 0.0
  }
  bn_param {
    sync_forward: false
    moving_average: true
    decay: 0.99
    scale_filler {
      type: "constant"
      value: 1.0
    }
    shift_filler {
      type: "constant"
      value: 0.0
    }
  }
}
layer {
  name: "stem.step3.3x3.relu"
  type: "ReLU"
  bottom: "stem.step3.3x3"
  top: "stem.step3.3x3"
}
layer {
  name: "stem.step3.concat"
  type: "Concat"
  bottom: "stem.step3.pool"
  bottom: "stem.step3.3x3"
  top: "stem"
}
layer {
  name: "a1.way1.poly1.path1.1x1.conv"
  type: "Convolution"
  bottom: "stem"
  top: "a1.way1.poly1.path1.1x1.conv"
  param {
    lr_mult: 1.0
    decay_mult: 1.0
  }
  convolution_param {
    num_output: 32
    bias_term: false
    weight_filler {
      type: "xavier"
    }
    bias_filler {
      type: "constant"
      value: 0.0
    }
    pad_h: 0
    pad_w: 0
    kernel_h: 1
    kernel_w: 1
    stride_h: 1
    stride_w: 1
  }
}
layer {
  name: "a1.way1.poly1.path1.1x1.bn"
  type: "BN"
  bottom: "a1.way1.poly1.path1.1x1.conv"
  top: "a1.way1.poly1.path1.1x1"
  param {
    lr_mult: 1.0
    decay_mult: 0.0
  }
  param {
    lr_mult: 1.0
    decay_mult: 0.0
  }
  param {
    lr_mult: 0.0
    decay_mult: 0.0
  }
  param {
    lr_mult: 0.0
    decay_mult: 0.0
  }
  bn_param {
    sync_forward: false
    moving_average: true
    decay: 0.99
    scale_filler {
      type: "constant"
      value: 1.0
    }
    shift_filler {
      type: "constant"
      value: 0.0
    }
  }
}
layer {
  name: "a1.way1.poly1.path1.1x1.relu"
  type: "ReLU"
  bottom: "a1.way1.poly1.path1.1x1"
  top: "a1.way1.poly1.path1.1x1"
}
layer {
  name: "a1.way1.poly1.path1.3x3.1.conv"
  type: "Convolution"
  bottom: "a1.way1.poly1.path1.1x1"
  top: "a1.way1.poly1.path1.3x3.1.conv"
  param {
    lr_mult: 1.0
    decay_mult: 1.0
  }
  convolution_param {
    num_output: 48
    bias_term: false
    weight_filler {
      type: "xavier"
    }
    bias_filler {
      type: "constant"
      value: 0.0
    }
    pad_h: 1
    pad_w: 1
    kernel_h: 3
    kernel_w: 3
    stride_h: 1
    stride_w: 1
  }
}
layer {
  name: "a1.way1.poly1.path1.3x3.1.bn"
  type: "BN"
  bottom: "a1.way1.poly1.path1.3x3.1.conv"
  top: "a1.way1.poly1.path1.3x3.1"
  param {
    lr_mult: 1.0
    decay_mult: 0.0
  }
  param {
    lr_mult: 1.0
    decay_mult: 0.0
  }
  param {
    lr_mult: 0.0
    decay_mult: 0.0
  }
  param {
    lr_mult: 0.0
    decay_mult: 0.0
  }
  bn_param {
    sync_forward: false
    moving_average: true
    decay: 0.99
    scale_filler {
      type: "constant"
      value: 1.0
    }
    shift_filler {
      type: "constant"
      value: 0.0
    }
  }
}
layer {
  name: "a1.way1.poly1.path1.3x3.1.relu"
  type: "ReLU"
  bottom: "a1.way1.poly1.path1.3x3.1"
  top: "a1.way1.poly1.path1.3x3.1"
}
layer {
  name: "a1.way1.poly1.path1.3x3.2.conv"
  type: "Convolution"
  bottom: "a1.way1.poly1.path1.3x3.1"
  top: "a1.way1.poly1.path1.3x3.2.conv"
  param {
    lr_mult: 1.0
    decay_mult: 1.0
  }
  convolution_param {
    num_output: 64
    bias_term: false
    weight_filler {
      type: "xavier"
    }
    bias_filler {
      type: "constant"
      value: 0.0
    }
    pad_h: 1
    pad_w: 1
    kernel_h: 3
    kernel_w: 3
    stride_h: 1
    stride_w: 1
  }
}
layer {
  name: "a1.way1.poly1.path1.3x3.2.bn"
  type: "BN"
  bottom: "a1.way1.poly1.path1.3x3.2.conv"
  top: "a1.way1.poly1.path1.3x3.2"
  param {
    lr_mult: 1.0
    decay_mult: 0.0
  }
  param {
    lr_mult: 1.0
    decay_mult: 0.0
  }
  param {
    lr_mult: 0.0
    decay_mult: 0.0
  }
  param {
    lr_mult: 0.0
    decay_mult: 0.0
  }
  bn_param {
    sync_forward: false
    moving_average: true
    decay: 0.99
    scale_filler {
      type: "constant"
      value: 1.0
    }
    shift_filler {
      type: "constant"
      value: 0.0
    }
  }
}
layer {
  name: "a1.way1.poly1.path1.3x3.2.relu"
  type: "ReLU"
  bottom: "a1.way1.poly1.path1.3x3.2"
  top: "a1.way1.poly1.path1.3x3.2"
}
layer {
  name: "a1.way1.poly1.path2.1x1.conv"
  type: "Convolution"
  bottom: "stem"
  top: "a1.way1.poly1.path2.1x1.conv"
  param {
    lr_mult: 1.0
    decay_mult: 1.0
  }
  convolution_param {
    num_output: 32
    bias_term: false
    weight_filler {
      type: "xavier"
    }
    bias_filler {
      type: "constant"
      value: 0.0
    }
    pad_h: 0
    pad_w: 0
    kernel_h: 1
    kernel_w: 1
    stride_h: 1
    stride_w: 1
  }
}
layer {
  name: "a1.way1.poly1.path2.1x1.bn"
  type: "BN"
  bottom: "a1.way1.poly1.path2.1x1.conv"
  top: "a1.way1.poly1.path2.1x1"
  param {
    lr_mult: 1.0
    decay_mult: 0.0
  }
  param {
    lr_mult: 1.0
    decay_mult: 0.0
  }
  param {
    lr_mult: 0.0
    decay_mult: 0.0
  }
  param {
    lr_mult: 0.0
    decay_mult: 0.0
  }
  bn_param {
    sync_forward: false
    moving_average: true
    decay: 0.99
    scale_filler {
      type: "constant"
      value: 1.0
    }
    shift_filler {
      type: "constant"
      value: 0.0
    }
  }
}
layer {
  name: "a1.way1.poly1.path2.1x1.relu"
  type: "ReLU"
  bottom: "a1.way1.poly1.path2.1x1"
  top: "a1.way1.poly1.path2.1x1"
}
layer {
  name: "a1.way1.poly1.path2.3x3.1.conv"
  type: "Convolution"
  bottom: "a1.way1.poly1.path2.1x1"
  top: "a1.way1.poly1.path2.3x3.1.conv"
  param {
    lr_mult: 1.0
    decay_mult: 1.0
  }
  convolution_param {
    num_output: 32
    bias_term: false
    weight_filler {
      type: "xavier"
    }
    bias_filler {
      type: "constant"
      value: 0.0
    }
    pad_h: 1
    pad_w: 1
    kernel_h: 3
    kernel_w: 3
    stride_h: 1
    stride_w: 1
  }
}
layer {
  name: "a1.way1.poly1.path2.3x3.1.bn"
  type: "BN"
  bottom: "a1.way1.poly1.path2.3x3.1.conv"
  top: "a1.way1.poly1.path2.3x3.1"
  param {
    lr_mult: 1.0
    decay_mult: 0.0
  }
  param {
    lr_mult: 1.0
    decay_mult: 0.0
  }
  param {
    lr_mult: 0.0
    decay_mult: 0.0
  }
  param {
    lr_mult: 0.0
    decay_mult: 0.0
  }
  bn_param {
    sync_forward: false
    moving_average: true
    decay: 0.99
    scale_filler {
      type: "constant"
      value: 1.0
    }
    shift_filler {
      type: "constant"
      value: 0.0
    }
  }
}
layer {
  name: "a1.way1.poly1.path2.3x3.1.relu"
  type: "ReLU"
  bottom: "a1.way1.poly1.path2.3x3.1"
  top: "a1.way1.poly1.path2.3x3.1"
}
layer {
  name: "a1.way1.poly1.path3.1x1.conv"
  type: "Convolution"
  bottom: "stem"
  top: "a1.way1.poly1.path3.1x1.conv"
  param {
    lr_mult: 1.0
    decay_mult: 1.0
  }
  convolution_param {
    num_output: 32
    bias_term: false
    weight_filler {
      type: "xavier"
    }
    bias_filler {
      type: "constant"
      value: 0.0
    }
    pad_h: 0
    pad_w: 0
    kernel_h: 1
    kernel_w: 1
    stride_h: 1
    stride_w: 1
  }
}
layer {
  name: "a1.way1.poly1.path3.1x1.bn"
  type: "BN"
  bottom: "a1.way1.poly1.path3.1x1.conv"
  top: "a1.way1.poly1.path3.1x1"
  param {
    lr_mult: 1.0
    decay_mult: 0.0
  }
  param {
    lr_mult: 1.0
    decay_mult: 0.0
  }
  param {
    lr_mult: 0.0
    decay_mult: 0.0
  }
  param {
    lr_mult: 0.0
    decay_mult: 0.0
  }
  bn_param {
    sync_forward: false
    moving_average: true
    decay: 0.99
    scale_filler {
      type: "constant"
      value: 1.0
    }
    shift_filler {
      type: "constant"
      value: 0.0
    }
  }
}
layer {
  name: "a1.way1.poly1.path3.1x1.relu"
  type: "ReLU"
  bottom: "a1.way1.poly1.path3.1x1"
  top: "a1.way1.poly1.path3.1x1"
}
layer {
  name: "a1.way1.poly1.concat"
  type: "Concat"
  bottom: "a1.way1.poly1.path1.3x3.2"
  bottom: "a1.way1.poly1.path2.3x3.1"
  bottom: "a1.way1.poly1.path3.1x1"
  top: "a1.way1.poly1.concat"
}
layer {
  name: "a1.way1.poly1.1x1.conv"
  type: "Convolution"
  bottom: "a1.way1.poly1.concat"
  top: "a1.way1.poly1.1x1.conv"
  param {
    lr_mult: 1.0
    decay_mult: 1.0
  }
  convolution_param {
    num_output: 384
    bias_term: false
    weight_filler {
      type: "xavier"
    }
    bias_filler {
      type: "constant"
      value: 0.0
    }
    pad_h: 0
    pad_w: 0
    kernel_h: 1
    kernel_w: 1
    stride_h: 1
    stride_w: 1
  }
}
layer {
  name: "a1.way1.poly1.1x1.bn"
  type: "BN"
  bottom: "a1.way1.poly1.1x1.conv"
  top: "a1.way1.poly1"
  param {
    lr_mult: 1.0
    decay_mult: 0.0
  }
  param {
    lr_mult: 1.0
    decay_mult: 0.0
  }
  param {
    lr_mult: 0.0
    decay_mult: 0.0
  }
  param {
    lr_mult: 0.0
    decay_mult: 0.0
  }
  bn_param {
    sync_forward: false
    moving_average: true
    decay: 0.99
    scale_filler {
      type: "constant"
      value: 1.0
    }
    shift_filler {
      type: "constant"
      value: 0.0
    }
  }
}
layer {
  name: "a1.elt"
  type: "Eltwise"
  bottom: "stem"
  bottom: "a1.way1.poly1"
  top: "a1"
  eltwise_param {
    operation: SUM
    coeff: 1
    coeff: 0.3
  }
}
layer {
  name: "a1.relu"
  type: "ReLU"
  bottom: "a1"
  top: "a1"
}
layer {
  name: "a2.way1.poly1.path1.1x1.conv"
  type: "Convolution"
  bottom: "a1"
  top: "a2.way1.poly1.path1.1x1.conv"
  param {
    lr_mult: 1.0
    decay_mult: 1.0
  }
  convolution_param {
    num_output: 32
    bias_term: false
    weight_filler {
      type: "xavier"
    }
    bias_filler {
      type: "constant"
      value: 0.0
    }
    pad_h: 0
    pad_w: 0
    kernel_h: 1
    kernel_w: 1
    stride_h: 1
    stride_w: 1
  }
}
layer {
  name: "a2.way1.poly1.path1.1x1.bn"
  type: "BN"
  bottom: "a2.way1.poly1.path1.1x1.conv"
  top: "a2.way1.poly1.path1.1x1"
  param {
    lr_mult: 1.0
    decay_mult: 0.0
  }
  param {
    lr_mult: 1.0
    decay_mult: 0.0
  }
  param {
    lr_mult: 0.0
    decay_mult: 0.0
  }
  param {
    lr_mult: 0.0
    decay_mult: 0.0
  }
  bn_param {
    sync_forward: false
    moving_average: true
    decay: 0.99
    scale_filler {
      type: "constant"
      value: 1.0
    }
    shift_filler {
      type: "constant"
      value: 0.0
    }
  }
}
layer {
  name: "a2.way1.poly1.path1.1x1.relu"
  type: "ReLU"
  bottom: "a2.way1.poly1.path1.1x1"
  top: "a2.way1.poly1.path1.1x1"
}
layer {
  name: "a2.way1.poly1.path1.3x3.1.conv"
  type: "Convolution"
  bottom: "a2.way1.poly1.path1.1x1"
  top: "a2.way1.poly1.path1.3x3.1.conv"
  param {
    lr_mult: 1.0
    decay_mult: 1.0
  }
  convolution_param {
    num_output: 48
    bias_term: false
    weight_filler {
      type: "xavier"
    }
    bias_filler {
      type: "constant"
      value: 0.0
    }
    pad_h: 1
    pad_w: 1
    kernel_h: 3
    kernel_w: 3
    stride_h: 1
    stride_w: 1
  }
}
layer {
  name: "a2.way1.poly1.path1.3x3.1.bn"
  type: "BN"
  bottom: "a2.way1.poly1.path1.3x3.1.conv"
  top: "a2.way1.poly1.path1.3x3.1"
  param {
    lr_mult: 1.0
    decay_mult: 0.0
  }
  param {
    lr_mult: 1.0
    decay_mult: 0.0
  }
  param {
    lr_mult: 0.0
    decay_mult: 0.0
  }
  param {
    lr_mult: 0.0
    decay_mult: 0.0
  }
  bn_param {
    sync_forward: false
    moving_average: true
    decay: 0.99
    scale_filler {
      type: "constant"
      value: 1.0
    }
    shift_filler {
      type: "constant"
      value: 0.0
    }
  }
}
layer {
  name: "a2.way1.poly1.path1.3x3.1.relu"
  type: "ReLU"
  bottom: "a2.way1.poly1.path1.3x3.1"
  top: "a2.way1.poly1.path1.3x3.1"
}
layer {
  name: "a2.way1.poly1.path1.3x3.2.conv"
  type: "Convolution"
  bottom: "a2.way1.poly1.path1.3x3.1"
  top: "a2.way1.poly1.path1.3x3.2.conv"
  param {
    lr_mult: 1.0
    decay_mult: 1.0
  }
  convolution_param {
    num_output: 64
    bias_term: false
    weight_filler {
      type: "xavier"
    }
    bias_filler {
      type: "constant"
      value: 0.0
    }
    pad_h: 1
    pad_w: 1
    kernel_h: 3
    kernel_w: 3
    stride_h: 1
    stride_w: 1
  }
}
layer {
  name: "a2.way1.poly1.path1.3x3.2.bn"
  type: "BN"
  bottom: "a2.way1.poly1.path1.3x3.2.conv"
  top: "a2.way1.poly1.path1.3x3.2"
  param {
    lr_mult: 1.0
    decay_mult: 0.0
  }
  param {
    lr_mult: 1.0
    decay_mult: 0.0
  }
  param {
    lr_mult: 0.0
    decay_mult: 0.0
  }
  param {
    lr_mult: 0.0
    decay_mult: 0.0
  }
  bn_param {
    sync_forward: false
    moving_average: true
    decay: 0.99
    scale_filler {
      type: "constant"
      value: 1.0
    }
    shift_filler {
      type: "constant"
      value: 0.0
    }
  }
}
layer {
  name: "a2.way1.poly1.path1.3x3.2.relu"
  type: "ReLU"
  bottom: "a2.way1.poly1.path1.3x3.2"
  top: "a2.way1.poly1.path1.3x3.2"
}
layer {
  name: "a2.way1.poly1.path2.1x1.conv"
  type: "Convolution"
  bottom: "a1"
  top: "a2.way1.poly1.path2.1x1.conv"
  param {
    lr_mult: 1.0
    decay_mult: 1.0
  }
  convolution_param {
    num_output: 32
    bias_term: false
    weight_filler {
      type: "xavier"
    }
    bias_filler {
      type: "constant"
      value: 0.0
    }
    pad_h: 0
    pad_w: 0
    kernel_h: 1
    kernel_w: 1
    stride_h: 1
    stride_w: 1
  }
}
layer {
  name: "a2.way1.poly1.path2.1x1.bn"
  type: "BN"
  bottom: "a2.way1.poly1.path2.1x1.conv"
  top: "a2.way1.poly1.path2.1x1"
  param {
    lr_mult: 1.0
    decay_mult: 0.0
  }
  param {
    lr_mult: 1.0
    decay_mult: 0.0
  }
  param {
    lr_mult: 0.0
    decay_mult: 0.0
  }
  param {
    lr_mult: 0.0
    decay_mult: 0.0
  }
  bn_param {
    sync_forward: false
    moving_average: true
    decay: 0.99
    scale_filler {
      type: "constant"
      value: 1.0
    }
    shift_filler {
      type: "constant"
      value: 0.0
    }
  }
}
layer {
  name: "a2.way1.poly1.path2.1x1.relu"
  type: "ReLU"
  bottom: "a2.way1.poly1.path2.1x1"
  top: "a2.way1.poly1.path2.1x1"
}
layer {
  name: "a2.way1.poly1.path2.3x3.1.conv"
  type: "Convolution"
  bottom: "a2.way1.poly1.path2.1x1"
  top: "a2.way1.poly1.path2.3x3.1.conv"
  param {
    lr_mult: 1.0
    decay_mult: 1.0
  }
  convolution_param {
    num_output: 32
    bias_term: false
    weight_filler {
      type: "xavier"
    }
    bias_filler {
      type: "constant"
      value: 0.0
    }
    pad_h: 1
    pad_w: 1
    kernel_h: 3
    kernel_w: 3
    stride_h: 1
    stride_w: 1
  }
}
layer {
  name: "a2.way1.poly1.path2.3x3.1.bn"
  type: "BN"
  bottom: "a2.way1.poly1.path2.3x3.1.conv"
  top: "a2.way1.poly1.path2.3x3.1"
  param {
    lr_mult: 1.0
    decay_mult: 0.0
  }
  param {
    lr_mult: 1.0
    decay_mult: 0.0
  }
  param {
    lr_mult: 0.0
    decay_mult: 0.0
  }
  param {
    lr_mult: 0.0
    decay_mult: 0.0
  }
  bn_param {
    sync_forward: false
    moving_average: true
    decay: 0.99
    scale_filler {
      type: "constant"
      value: 1.0
    }
    shift_filler {
      type: "constant"
      value: 0.0
    }
  }
}
layer {
  name: "a2.way1.poly1.path2.3x3.1.relu"
  type: "ReLU"
  bottom: "a2.way1.poly1.path2.3x3.1"
  top: "a2.way1.poly1.path2.3x3.1"
}
layer {
  name: "a2.way1.poly1.path3.1x1.conv"
  type: "Convolution"
  bottom: "a1"
  top: "a2.way1.poly1.path3.1x1.conv"
  param {
    lr_mult: 1.0
    decay_mult: 1.0
  }
  convolution_param {
    num_output: 32
    bias_term: false
    weight_filler {
      type: "xavier"
    }
    bias_filler {
      type: "constant"
      value: 0.0
    }
    pad_h: 0
    pad_w: 0
    kernel_h: 1
    kernel_w: 1
    stride_h: 1
    stride_w: 1
  }
}
layer {
  name: "a2.way1.poly1.path3.1x1.bn"
  type: "BN"
  bottom: "a2.way1.poly1.path3.1x1.conv"
  top: "a2.way1.poly1.path3.1x1"
  param {
    lr_mult: 1.0
    decay_mult: 0.0
  }
  param {
    lr_mult: 1.0
    decay_mult: 0.0
  }
  param {
    lr_mult: 0.0
    decay_mult: 0.0
  }
  param {
    lr_mult: 0.0
    decay_mult: 0.0
  }
  bn_param {
    sync_forward: false
    moving_average: true
    decay: 0.99
    scale_filler {
      type: "constant"
      value: 1.0
    }
    shift_filler {
      type: "constant"
      value: 0.0
    }
  }
}
layer {
  name: "a2.way1.poly1.path3.1x1.relu"
  type: "ReLU"
  bottom: "a2.way1.poly1.path3.1x1"
  top: "a2.way1.poly1.path3.1x1"
}
layer {
  name: "a2.way1.poly1.concat"
  type: "Concat"
  bottom: "a2.way1.poly1.path1.3x3.2"
  bottom: "a2.way1.poly1.path2.3x3.1"
  bottom: "a2.way1.poly1.path3.1x1"
  top: "a2.way1.poly1.concat"
}
layer {
  name: "a2.way1.poly1.1x1.conv"
  type: "Convolution"
  bottom: "a2.way1.poly1.concat"
  top: "a2.way1.poly1.1x1.conv"
  param {
    lr_mult: 1.0
    decay_mult: 1.0
  }
  convolution_param {
    num_output: 384
    bias_term: false
    weight_filler {
      type: "xavier"
    }
    bias_filler {
      type: "constant"
      value: 0.0
    }
    pad_h: 0
    pad_w: 0
    kernel_h: 1
    kernel_w: 1
    stride_h: 1
    stride_w: 1
  }
}
layer {
  name: "a2.way1.poly1.1x1.bn"
  type: "BN"
  bottom: "a2.way1.poly1.1x1.conv"
  top: "a2.way1.poly1"
  param {
    lr_mult: 1.0
    decay_mult: 0.0
  }
  param {
    lr_mult: 1.0
    decay_mult: 0.0
  }
  param {
    lr_mult: 0.0
    decay_mult: 0.0
  }
  param {
    lr_mult: 0.0
    decay_mult: 0.0
  }
  bn_param {
    sync_forward: false
    moving_average: true
    decay: 0.99
    scale_filler {
      type: "constant"
      value: 1.0
    }
    shift_filler {
      type: "constant"
      value: 0.0
    }
  }
}
layer {
  name: "a2.elt"
  type: "Eltwise"
  bottom: "a1"
  bottom: "a2.way1.poly1"
  top: "a2"
  eltwise_param {
    operation: SUM
    coeff: 1
    coeff: 0.3
  }
}
layer {
  name: "a2.relu"
  type: "ReLU"
  bottom: "a2"
  top: "a2"
}
layer {
  name: "a3.way1.poly1.path1.1x1.conv"
  type: "Convolution"
  bottom: "a2"
  top: "a3.way1.poly1.path1.1x1.conv"
  param {
    lr_mult: 1.0
    decay_mult: 1.0
  }
  convolution_param {
    num_output: 32
    bias_term: false
    weight_filler {
      type: "xavier"
    }
    bias_filler {
      type: "constant"
      value: 0.0
    }
    pad_h: 0
    pad_w: 0
    kernel_h: 1
    kernel_w: 1
    stride_h: 1
    stride_w: 1
  }
}
layer {
  name: "a3.way1.poly1.path1.1x1.bn"
  type: "BN"
  bottom: "a3.way1.poly1.path1.1x1.conv"
  top: "a3.way1.poly1.path1.1x1"
  param {
    lr_mult: 1.0
    decay_mult: 0.0
  }
  param {
    lr_mult: 1.0
    decay_mult: 0.0
  }
  param {
    lr_mult: 0.0
    decay_mult: 0.0
  }
  param {
    lr_mult: 0.0
    decay_mult: 0.0
  }
  bn_param {
    sync_forward: false
    moving_average: true
    decay: 0.99
    scale_filler {
      type: "constant"
      value: 1.0
    }
    shift_filler {
      type: "constant"
      value: 0.0
    }
  }
}
layer {
  name: "a3.way1.poly1.path1.1x1.relu"
  type: "ReLU"
  bottom: "a3.way1.poly1.path1.1x1"
  top: "a3.way1.poly1.path1.1x1"
}
layer {
  name: "a3.way1.poly1.path1.3x3.1.conv"
  type: "Convolution"
  bottom: "a3.way1.poly1.path1.1x1"
  top: "a3.way1.poly1.path1.3x3.1.conv"
  param {
    lr_mult: 1.0
    decay_mult: 1.0
  }
  convolution_param {
    num_output: 48
    bias_term: false
    weight_filler {
      type: "xavier"
    }
    bias_filler {
      type: "constant"
      value: 0.0
    }
    pad_h: 1
    pad_w: 1
    kernel_h: 3
    kernel_w: 3
    stride_h: 1
    stride_w: 1
  }
}
layer {
  name: "a3.way1.poly1.path1.3x3.1.bn"
  type: "BN"
  bottom: "a3.way1.poly1.path1.3x3.1.conv"
  top: "a3.way1.poly1.path1.3x3.1"
  param {
    lr_mult: 1.0
    decay_mult: 0.0
  }
  param {
    lr_mult: 1.0
    decay_mult: 0.0
  }
  param {
    lr_mult: 0.0
    decay_mult: 0.0
  }
  param {
    lr_mult: 0.0
    decay_mult: 0.0
  }
  bn_param {
    sync_forward: false
    moving_average: true
    decay: 0.99
    scale_filler {
      type: "constant"
      value: 1.0
    }
    shift_filler {
      type: "constant"
      value: 0.0
    }
  }
}
layer {
  name: "a3.way1.poly1.path1.3x3.1.relu"
  type: "ReLU"
  bottom: "a3.way1.poly1.path1.3x3.1"
  top: "a3.way1.poly1.path1.3x3.1"
}
layer {
  name: "a3.way1.poly1.path1.3x3.2.conv"
  type: "Convolution"
  bottom: "a3.way1.poly1.path1.3x3.1"
  top: "a3.way1.poly1.path1.3x3.2.conv"
  param {
    lr_mult: 1.0
    decay_mult: 1.0
  }
  convolution_param {
    num_output: 64
    bias_term: false
    weight_filler {
      type: "xavier"
    }
    bias_filler {
      type: "constant"
      value: 0.0
    }
    pad_h: 1
    pad_w: 1
    kernel_h: 3
    kernel_w: 3
    stride_h: 1
    stride_w: 1
  }
}
layer {
  name: "a3.way1.poly1.path1.3x3.2.bn"
  type: "BN"
  bottom: "a3.way1.poly1.path1.3x3.2.conv"
  top: "a3.way1.poly1.path1.3x3.2"
  param {
    lr_mult: 1.0
    decay_mult: 0.0
  }
  param {
    lr_mult: 1.0
    decay_mult: 0.0
  }
  param {
    lr_mult: 0.0
    decay_mult: 0.0
  }
  param {
    lr_mult: 0.0
    decay_mult: 0.0
  }
  bn_param {
    sync_forward: false
    moving_average: true
    decay: 0.99
    scale_filler {
      type: "constant"
      value: 1.0
    }
    shift_filler {
      type: "constant"
      value: 0.0
    }
  }
}
layer {
  name: "a3.way1.poly1.path1.3x3.2.relu"
  type: "ReLU"
  bottom: "a3.way1.poly1.path1.3x3.2"
  top: "a3.way1.poly1.path1.3x3.2"
}
layer {
  name: "a3.way1.poly1.path2.1x1.conv"
  type: "Convolution"
  bottom: "a2"
  top: "a3.way1.poly1.path2.1x1.conv"
  param {
    lr_mult: 1.0
    decay_mult: 1.0
  }
  convolution_param {
    num_output: 32
    bias_term: false
    weight_filler {
      type: "xavier"
    }
    bias_filler {
      type: "constant"
      value: 0.0
    }
    pad_h: 0
    pad_w: 0
    kernel_h: 1
    kernel_w: 1
    stride_h: 1
    stride_w: 1
  }
}
layer {
  name: "a3.way1.poly1.path2.1x1.bn"
  type: "BN"
  bottom: "a3.way1.poly1.path2.1x1.conv"
  top: "a3.way1.poly1.path2.1x1"
  param {
    lr_mult: 1.0
    decay_mult: 0.0
  }
  param {
    lr_mult: 1.0
    decay_mult: 0.0
  }
  param {
    lr_mult: 0.0
    decay_mult: 0.0
  }
  param {
    lr_mult: 0.0
    decay_mult: 0.0
  }
  bn_param {
    sync_forward: false
    moving_average: true
    decay: 0.99
    scale_filler {
      type: "constant"
      value: 1.0
    }
    shift_filler {
      type: "constant"
      value: 0.0
    }
  }
}
layer {
  name: "a3.way1.poly1.path2.1x1.relu"
  type: "ReLU"
  bottom: "a3.way1.poly1.path2.1x1"
  top: "a3.way1.poly1.path2.1x1"
}
layer {
  name: "a3.way1.poly1.path2.3x3.1.conv"
  type: "Convolution"
  bottom: "a3.way1.poly1.path2.1x1"
  top: "a3.way1.poly1.path2.3x3.1.conv"
  param {
    lr_mult: 1.0
    decay_mult: 1.0
  }
  convolution_param {
    num_output: 32
    bias_term: false
    weight_filler {
      type: "xavier"
    }
    bias_filler {
      type: "constant"
      value: 0.0
    }
    pad_h: 1
    pad_w: 1
    kernel_h: 3
    kernel_w: 3
    stride_h: 1
    stride_w: 1
  }
}
layer {
  name: "a3.way1.poly1.path2.3x3.1.bn"
  type: "BN"
  bottom: "a3.way1.poly1.path2.3x3.1.conv"
  top: "a3.way1.poly1.path2.3x3.1"
  param {
    lr_mult: 1.0
    decay_mult: 0.0
  }
  param {
    lr_mult: 1.0
    decay_mult: 0.0
  }
  param {
    lr_mult: 0.0
    decay_mult: 0.0
  }
  param {
    lr_mult: 0.0
    decay_mult: 0.0
  }
  bn_param {
    sync_forward: false
    moving_average: true
    decay: 0.99
    scale_filler {
      type: "constant"
      value: 1.0
    }
    shift_filler {
      type: "constant"
      value: 0.0
    }
  }
}
layer {
  name: "a3.way1.poly1.path2.3x3.1.relu"
  type: "ReLU"
  bottom: "a3.way1.poly1.path2.3x3.1"
  top: "a3.way1.poly1.path2.3x3.1"
}
layer {
  name: "a3.way1.poly1.path3.1x1.conv"
  type: "Convolution"
  bottom: "a2"
  top: "a3.way1.poly1.path3.1x1.conv"
  param {
    lr_mult: 1.0
    decay_mult: 1.0
  }
  convolution_param {
    num_output: 32
    bias_term: false
    weight_filler {
      type: "xavier"
    }
    bias_filler {
      type: "constant"
      value: 0.0
    }
    pad_h: 0
    pad_w: 0
    kernel_h: 1
    kernel_w: 1
    stride_h: 1
    stride_w: 1
  }
}
layer {
  name: "a3.way1.poly1.path3.1x1.bn"
  type: "BN"
  bottom: "a3.way1.poly1.path3.1x1.conv"
  top: "a3.way1.poly1.path3.1x1"
  param {
    lr_mult: 1.0
    decay_mult: 0.0
  }
  param {
    lr_mult: 1.0
    decay_mult: 0.0
  }
  param {
    lr_mult: 0.0
    decay_mult: 0.0
  }
  param {
    lr_mult: 0.0
    decay_mult: 0.0
  }
  bn_param {
    sync_forward: false
    moving_average: true
    decay: 0.99
    scale_filler {
      type: "constant"
      value: 1.0
    }
    shift_filler {
      type: "constant"
      value: 0.0
    }
  }
}
layer {
  name: "a3.way1.poly1.path3.1x1.relu"
  type: "ReLU"
  bottom: "a3.way1.poly1.path3.1x1"
  top: "a3.way1.poly1.path3.1x1"
}
layer {
  name: "a3.way1.poly1.concat"
  type: "Concat"
  bottom: "a3.way1.poly1.path1.3x3.2"
  bottom: "a3.way1.poly1.path2.3x3.1"
  bottom: "a3.way1.poly1.path3.1x1"
  top: "a3.way1.poly1.concat"
}
layer {
  name: "a3.way1.poly1.1x1.conv"
  type: "Convolution"
  bottom: "a3.way1.poly1.concat"
  top: "a3.way1.poly1.1x1.conv"
  param {
    lr_mult: 1.0
    decay_mult: 1.0
  }
  convolution_param {
    num_output: 384
    bias_term: false
    weight_filler {
      type: "xavier"
    }
    bias_filler {
      type: "constant"
      value: 0.0
    }
    pad_h: 0
    pad_w: 0
    kernel_h: 1
    kernel_w: 1
    stride_h: 1
    stride_w: 1
  }
}
layer {
  name: "a3.way1.poly1.1x1.bn"
  type: "BN"
  bottom: "a3.way1.poly1.1x1.conv"
  top: "a3.way1.poly1"
  param {
    lr_mult: 1.0
    decay_mult: 0.0
  }
  param {
    lr_mult: 1.0
    decay_mult: 0.0
  }
  param {
    lr_mult: 0.0
    decay_mult: 0.0
  }
  param {
    lr_mult: 0.0
    decay_mult: 0.0
  }
  bn_param {
    sync_forward: false
    moving_average: true
    decay: 0.99
    scale_filler {
      type: "constant"
      value: 1.0
    }
    shift_filler {
      type: "constant"
      value: 0.0
    }
  }
}
layer {
  name: "a3.elt"
  type: "Eltwise"
  bottom: "a2"
  bottom: "a3.way1.poly1"
  top: "a3"
  eltwise_param {
    operation: SUM
    coeff: 1
    coeff: 0.3
  }
}
layer {
  name: "a3.relu"
  type: "ReLU"
  bottom: "a3"
  top: "a3"
}
layer {
  name: "a4.way1.poly1.path1.1x1.conv"
  type: "Convolution"
  bottom: "a3"
  top: "a4.way1.poly1.path1.1x1.conv"
  param {
    lr_mult: 1.0
    decay_mult: 1.0
  }
  convolution_param {
    num_output: 32
    bias_term: false
    weight_filler {
      type: "xavier"
    }
    bias_filler {
      type: "constant"
      value: 0.0
    }
    pad_h: 0
    pad_w: 0
    kernel_h: 1
    kernel_w: 1
    stride_h: 1
    stride_w: 1
  }
}
layer {
  name: "a4.way1.poly1.path1.1x1.bn"
  type: "BN"
  bottom: "a4.way1.poly1.path1.1x1.conv"
  top: "a4.way1.poly1.path1.1x1"
  param {
    lr_mult: 1.0
    decay_mult: 0.0
  }
  param {
    lr_mult: 1.0
    decay_mult: 0.0
  }
  param {
    lr_mult: 0.0
    decay_mult: 0.0
  }
  param {
    lr_mult: 0.0
    decay_mult: 0.0
  }
  bn_param {
    sync_forward: false
    moving_average: true
    decay: 0.99
    scale_filler {
      type: "constant"
      value: 1.0
    }
    shift_filler {
      type: "constant"
      value: 0.0
    }
  }
}
layer {
  name: "a4.way1.poly1.path1.1x1.relu"
  type: "ReLU"
  bottom: "a4.way1.poly1.path1.1x1"
  top: "a4.way1.poly1.path1.1x1"
}
layer {
  name: "a4.way1.poly1.path1.3x3.1.conv"
  type: "Convolution"
  bottom: "a4.way1.poly1.path1.1x1"
  top: "a4.way1.poly1.path1.3x3.1.conv"
  param {
    lr_mult: 1.0
    decay_mult: 1.0
  }
  convolution_param {
    num_output: 48
    bias_term: false
    weight_filler {
      type: "xavier"
    }
    bias_filler {
      type: "constant"
      value: 0.0
    }
    pad_h: 1
    pad_w: 1
    kernel_h: 3
    kernel_w: 3
    stride_h: 1
    stride_w: 1
  }
}
layer {
  name: "a4.way1.poly1.path1.3x3.1.bn"
  type: "BN"
  bottom: "a4.way1.poly1.path1.3x3.1.conv"
  top: "a4.way1.poly1.path1.3x3.1"
  param {
    lr_mult: 1.0
    decay_mult: 0.0
  }
  param {
    lr_mult: 1.0
    decay_mult: 0.0
  }
  param {
    lr_mult: 0.0
    decay_mult: 0.0
  }
  param {
    lr_mult: 0.0
    decay_mult: 0.0
  }
  bn_param {
    sync_forward: false
    moving_average: true
    decay: 0.99
    scale_filler {
      type: "constant"
      value: 1.0
    }
    shift_filler {
      type: "constant"
      value: 0.0
    }
  }
}
layer {
  name: "a4.way1.poly1.path1.3x3.1.relu"
  type: "ReLU"
  bottom: "a4.way1.poly1.path1.3x3.1"
  top: "a4.way1.poly1.path1.3x3.1"
}
layer {
  name: "a4.way1.poly1.path1.3x3.2.conv"
  type: "Convolution"
  bottom: "a4.way1.poly1.path1.3x3.1"
  top: "a4.way1.poly1.path1.3x3.2.conv"
  param {
    lr_mult: 1.0
    decay_mult: 1.0
  }
  convolution_param {
    num_output: 64
    bias_term: false
    weight_filler {
      type: "xavier"
    }
    bias_filler {
      type: "constant"
      value: 0.0
    }
    pad_h: 1
    pad_w: 1
    kernel_h: 3
    kernel_w: 3
    stride_h: 1
    stride_w: 1
  }
}
layer {
  name: "a4.way1.poly1.path1.3x3.2.bn"
  type: "BN"
  bottom: "a4.way1.poly1.path1.3x3.2.conv"
  top: "a4.way1.poly1.path1.3x3.2"
  param {
    lr_mult: 1.0
    decay_mult: 0.0
  }
  param {
    lr_mult: 1.0
    decay_mult: 0.0
  }
  param {
    lr_mult: 0.0
    decay_mult: 0.0
  }
  param {
    lr_mult: 0.0
    decay_mult: 0.0
  }
  bn_param {
    sync_forward: false
    moving_average: true
    decay: 0.99
    scale_filler {
      type: "constant"
      value: 1.0
    }
    shift_filler {
      type: "constant"
      value: 0.0
    }
  }
}
layer {
  name: "a4.way1.poly1.path1.3x3.2.relu"
  type: "ReLU"
  bottom: "a4.way1.poly1.path1.3x3.2"
  top: "a4.way1.poly1.path1.3x3.2"
}
layer {
  name: "a4.way1.poly1.path2.1x1.conv"
  type: "Convolution"
  bottom: "a3"
  top: "a4.way1.poly1.path2.1x1.conv"
  param {
    lr_mult: 1.0
    decay_mult: 1.0
  }
  convolution_param {
    num_output: 32
    bias_term: false
    weight_filler {
      type: "xavier"
    }
    bias_filler {
      type: "constant"
      value: 0.0
    }
    pad_h: 0
    pad_w: 0
    kernel_h: 1
    kernel_w: 1
    stride_h: 1
    stride_w: 1
  }
}
layer {
  name: "a4.way1.poly1.path2.1x1.bn"
  type: "BN"
  bottom: "a4.way1.poly1.path2.1x1.conv"
  top: "a4.way1.poly1.path2.1x1"
  param {
    lr_mult: 1.0
    decay_mult: 0.0
  }
  param {
    lr_mult: 1.0
    decay_mult: 0.0
  }
  param {
    lr_mult: 0.0
    decay_mult: 0.0
  }
  param {
    lr_mult: 0.0
    decay_mult: 0.0
  }
  bn_param {
    sync_forward: false
    moving_average: true
    decay: 0.99
    scale_filler {
      type: "constant"
      value: 1.0
    }
    shift_filler {
      type: "constant"
      value: 0.0
    }
  }
}
layer {
  name: "a4.way1.poly1.path2.1x1.relu"
  type: "ReLU"
  bottom: "a4.way1.poly1.path2.1x1"
  top: "a4.way1.poly1.path2.1x1"
}
layer {
  name: "a4.way1.poly1.path2.3x3.1.conv"
  type: "Convolution"
  bottom: "a4.way1.poly1.path2.1x1"
  top: "a4.way1.poly1.path2.3x3.1.conv"
  param {
    lr_mult: 1.0
    decay_mult: 1.0
  }
  convolution_param {
    num_output: 32
    bias_term: false
    weight_filler {
      type: "xavier"
    }
    bias_filler {
      type: "constant"
      value: 0.0
    }
    pad_h: 1
    pad_w: 1
    kernel_h: 3
    kernel_w: 3
    stride_h: 1
    stride_w: 1
  }
}
layer {
  name: "a4.way1.poly1.path2.3x3.1.bn"
  type: "BN"
  bottom: "a4.way1.poly1.path2.3x3.1.conv"
  top: "a4.way1.poly1.path2.3x3.1"
  param {
    lr_mult: 1.0
    decay_mult: 0.0
  }
  param {
    lr_mult: 1.0
    decay_mult: 0.0
  }
  param {
    lr_mult: 0.0
    decay_mult: 0.0
  }
  param {
    lr_mult: 0.0
    decay_mult: 0.0
  }
  bn_param {
    sync_forward: false
    moving_average: true
    decay: 0.99
    scale_filler {
      type: "constant"
      value: 1.0
    }
    shift_filler {
      type: "constant"
      value: 0.0
    }
  }
}
layer {
  name: "a4.way1.poly1.path2.3x3.1.relu"
  type: "ReLU"
  bottom: "a4.way1.poly1.path2.3x3.1"
  top: "a4.way1.poly1.path2.3x3.1"
}
layer {
  name: "a4.way1.poly1.path3.1x1.conv"
  type: "Convolution"
  bottom: "a3"
  top: "a4.way1.poly1.path3.1x1.conv"
  param {
    lr_mult: 1.0
    decay_mult: 1.0
  }
  convolution_param {
    num_output: 32
    bias_term: false
    weight_filler {
      type: "xavier"
    }
    bias_filler {
      type: "constant"
      value: 0.0
    }
    pad_h: 0
    pad_w: 0
    kernel_h: 1
    kernel_w: 1
    stride_h: 1
    stride_w: 1
  }
}
layer {
  name: "a4.way1.poly1.path3.1x1.bn"
  type: "BN"
  bottom: "a4.way1.poly1.path3.1x1.conv"
  top: "a4.way1.poly1.path3.1x1"
  param {
    lr_mult: 1.0
    decay_mult: 0.0
  }
  param {
    lr_mult: 1.0
    decay_mult: 0.0
  }
  param {
    lr_mult: 0.0
    decay_mult: 0.0
  }
  param {
    lr_mult: 0.0
    decay_mult: 0.0
  }
  bn_param {
    sync_forward: false
    moving_average: true
    decay: 0.99
    scale_filler {
      type: "constant"
      value: 1.0
    }
    shift_filler {
      type: "constant"
      value: 0.0
    }
  }
}
layer {
  name: "a4.way1.poly1.path3.1x1.relu"
  type: "ReLU"
  bottom: "a4.way1.poly1.path3.1x1"
  top: "a4.way1.poly1.path3.1x1"
}
layer {
  name: "a4.way1.poly1.concat"
  type: "Concat"
  bottom: "a4.way1.poly1.path1.3x3.2"
  bottom: "a4.way1.poly1.path2.3x3.1"
  bottom: "a4.way1.poly1.path3.1x1"
  top: "a4.way1.poly1.concat"
}
layer {
  name: "a4.way1.poly1.1x1.conv"
  type: "Convolution"
  bottom: "a4.way1.poly1.concat"
  top: "a4.way1.poly1.1x1.conv"
  param {
    lr_mult: 1.0
    decay_mult: 1.0
  }
  convolution_param {
    num_output: 384
    bias_term: false
    weight_filler {
      type: "xavier"
    }
    bias_filler {
      type: "constant"
      value: 0.0
    }
    pad_h: 0
    pad_w: 0
    kernel_h: 1
    kernel_w: 1
    stride_h: 1
    stride_w: 1
  }
}
layer {
  name: "a4.way1.poly1.1x1.bn"
  type: "BN"
  bottom: "a4.way1.poly1.1x1.conv"
  top: "a4.way1.poly1"
  param {
    lr_mult: 1.0
    decay_mult: 0.0
  }
  param {
    lr_mult: 1.0
    decay_mult: 0.0
  }
  param {
    lr_mult: 0.0
    decay_mult: 0.0
  }
  param {
    lr_mult: 0.0
    decay_mult: 0.0
  }
  bn_param {
    sync_forward: false
    moving_average: true
    decay: 0.99
    scale_filler {
      type: "constant"
      value: 1.0
    }
    shift_filler {
      type: "constant"
      value: 0.0
    }
  }
}
layer {
  name: "a4.elt"
  type: "Eltwise"
  bottom: "a3"
  bottom: "a4.way1.poly1"
  top: "a4"
  eltwise_param {
    operation: SUM
    coeff: 1
    coeff: 0.3
  }
}
layer {
  name: "a4.relu"
  type: "ReLU"
  bottom: "a4"
  top: "a4"
}
layer {
  name: "a5.way1.poly1.path1.1x1.conv"
  type: "Convolution"
  bottom: "a4"
  top: "a5.way1.poly1.path1.1x1.conv"
  param {
    lr_mult: 1.0
    decay_mult: 1.0
  }
  convolution_param {
    num_output: 32
    bias_term: false
    weight_filler {
      type: "xavier"
    }
    bias_filler {
      type: "constant"
      value: 0.0
    }
    pad_h: 0
    pad_w: 0
    kernel_h: 1
    kernel_w: 1
    stride_h: 1
    stride_w: 1
  }
}
layer {
  name: "a5.way1.poly1.path1.1x1.bn"
  type: "BN"
  bottom: "a5.way1.poly1.path1.1x1.conv"
  top: "a5.way1.poly1.path1.1x1"
  param {
    lr_mult: 1.0
    decay_mult: 0.0
  }
  param {
    lr_mult: 1.0
    decay_mult: 0.0
  }
  param {
    lr_mult: 0.0
    decay_mult: 0.0
  }
  param {
    lr_mult: 0.0
    decay_mult: 0.0
  }
  bn_param {
    sync_forward: false
    moving_average: true
    decay: 0.99
    scale_filler {
      type: "constant"
      value: 1.0
    }
    shift_filler {
      type: "constant"
      value: 0.0
    }
  }
}
layer {
  name: "a5.way1.poly1.path1.1x1.relu"
  type: "ReLU"
  bottom: "a5.way1.poly1.path1.1x1"
  top: "a5.way1.poly1.path1.1x1"
}
layer {
  name: "a5.way1.poly1.path1.3x3.1.conv"
  type: "Convolution"
  bottom: "a5.way1.poly1.path1.1x1"
  top: "a5.way1.poly1.path1.3x3.1.conv"
  param {
    lr_mult: 1.0
    decay_mult: 1.0
  }
  convolution_param {
    num_output: 48
    bias_term: false
    weight_filler {
      type: "xavier"
    }
    bias_filler {
      type: "constant"
      value: 0.0
    }
    pad_h: 1
    pad_w: 1
    kernel_h: 3
    kernel_w: 3
    stride_h: 1
    stride_w: 1
  }
}
layer {
  name: "a5.way1.poly1.path1.3x3.1.bn"
  type: "BN"
  bottom: "a5.way1.poly1.path1.3x3.1.conv"
  top: "a5.way1.poly1.path1.3x3.1"
  param {
    lr_mult: 1.0
    decay_mult: 0.0
  }
  param {
    lr_mult: 1.0
    decay_mult: 0.0
  }
  param {
    lr_mult: 0.0
    decay_mult: 0.0
  }
  param {
    lr_mult: 0.0
    decay_mult: 0.0
  }
  bn_param {
    sync_forward: false
    moving_average: true
    decay: 0.99
    scale_filler {
      type: "constant"
      value: 1.0
    }
    shift_filler {
      type: "constant"
      value: 0.0
    }
  }
}
layer {
  name: "a5.way1.poly1.path1.3x3.1.relu"
  type: "ReLU"
  bottom: "a5.way1.poly1.path1.3x3.1"
  top: "a5.way1.poly1.path1.3x3.1"
}
layer {
  name: "a5.way1.poly1.path1.3x3.2.conv"
  type: "Convolution"
  bottom: "a5.way1.poly1.path1.3x3.1"
  top: "a5.way1.poly1.path1.3x3.2.conv"
  param {
    lr_mult: 1.0
    decay_mult: 1.0
  }
  convolution_param {
    num_output: 64
    bias_term: false
    weight_filler {
      type: "xavier"
    }
    bias_filler {
      type: "constant"
      value: 0.0
    }
    pad_h: 1
    pad_w: 1
    kernel_h: 3
    kernel_w: 3
    stride_h: 1
    stride_w: 1
  }
}
layer {
  name: "a5.way1.poly1.path1.3x3.2.bn"
  type: "BN"
  bottom: "a5.way1.poly1.path1.3x3.2.conv"
  top: "a5.way1.poly1.path1.3x3.2"
  param {
    lr_mult: 1.0
    decay_mult: 0.0
  }
  param {
    lr_mult: 1.0
    decay_mult: 0.0
  }
  param {
    lr_mult: 0.0
    decay_mult: 0.0
  }
  param {
    lr_mult: 0.0
    decay_mult: 0.0
  }
  bn_param {
    sync_forward: false
    moving_average: true
    decay: 0.99
    scale_filler {
      type: "constant"
      value: 1.0
    }
    shift_filler {
      type: "constant"
      value: 0.0
    }
  }
}
layer {
  name: "a5.way1.poly1.path1.3x3.2.relu"
  type: "ReLU"
  bottom: "a5.way1.poly1.path1.3x3.2"
  top: "a5.way1.poly1.path1.3x3.2"
}
layer {
  name: "a5.way1.poly1.path2.1x1.conv"
  type: "Convolution"
  bottom: "a4"
  top: "a5.way1.poly1.path2.1x1.conv"
  param {
    lr_mult: 1.0
    decay_mult: 1.0
  }
  convolution_param {
    num_output: 32
    bias_term: false
    weight_filler {
      type: "xavier"
    }
    bias_filler {
      type: "constant"
      value: 0.0
    }
    pad_h: 0
    pad_w: 0
    kernel_h: 1
    kernel_w: 1
    stride_h: 1
    stride_w: 1
  }
}
layer {
  name: "a5.way1.poly1.path2.1x1.bn"
  type: "BN"
  bottom: "a5.way1.poly1.path2.1x1.conv"
  top: "a5.way1.poly1.path2.1x1"
  param {
    lr_mult: 1.0
    decay_mult: 0.0
  }
  param {
    lr_mult: 1.0
    decay_mult: 0.0
  }
  param {
    lr_mult: 0.0
    decay_mult: 0.0
  }
  param {
    lr_mult: 0.0
    decay_mult: 0.0
  }
  bn_param {
    sync_forward: false
    moving_average: true
    decay: 0.99
    scale_filler {
      type: "constant"
      value: 1.0
    }
    shift_filler {
      type: "constant"
      value: 0.0
    }
  }
}
layer {
  name: "a5.way1.poly1.path2.1x1.relu"
  type: "ReLU"
  bottom: "a5.way1.poly1.path2.1x1"
  top: "a5.way1.poly1.path2.1x1"
}
layer {
  name: "a5.way1.poly1.path2.3x3.1.conv"
  type: "Convolution"
  bottom: "a5.way1.poly1.path2.1x1"
  top: "a5.way1.poly1.path2.3x3.1.conv"
  param {
    lr_mult: 1.0
    decay_mult: 1.0
  }
  convolution_param {
    num_output: 32
    bias_term: false
    weight_filler {
      type: "xavier"
    }
    bias_filler {
      type: "constant"
      value: 0.0
    }
    pad_h: 1
    pad_w: 1
    kernel_h: 3
    kernel_w: 3
    stride_h: 1
    stride_w: 1
  }
}
layer {
  name: "a5.way1.poly1.path2.3x3.1.bn"
  type: "BN"
  bottom: "a5.way1.poly1.path2.3x3.1.conv"
  top: "a5.way1.poly1.path2.3x3.1"
  param {
    lr_mult: 1.0
    decay_mult: 0.0
  }
  param {
    lr_mult: 1.0
    decay_mult: 0.0
  }
  param {
    lr_mult: 0.0
    decay_mult: 0.0
  }
  param {
    lr_mult: 0.0
    decay_mult: 0.0
  }
  bn_param {
    sync_forward: false
    moving_average: true
    decay: 0.99
    scale_filler {
      type: "constant"
      value: 1.0
    }
    shift_filler {
      type: "constant"
      value: 0.0
    }
  }
}
layer {
  name: "a5.way1.poly1.path2.3x3.1.relu"
  type: "ReLU"
  bottom: "a5.way1.poly1.path2.3x3.1"
  top: "a5.way1.poly1.path2.3x3.1"
}
layer {
  name: "a5.way1.poly1.path3.1x1.conv"
  type: "Convolution"
  bottom: "a4"
  top: "a5.way1.poly1.path3.1x1.conv"
  param {
    lr_mult: 1.0
    decay_mult: 1.0
  }
  convolution_param {
    num_output: 32
    bias_term: false
    weight_filler {
      type: "xavier"
    }
    bias_filler {
      type: "constant"
      value: 0.0
    }
    pad_h: 0
    pad_w: 0
    kernel_h: 1
    kernel_w: 1
    stride_h: 1
    stride_w: 1
  }
}
layer {
  name: "a5.way1.poly1.path3.1x1.bn"
  type: "BN"
  bottom: "a5.way1.poly1.path3.1x1.conv"
  top: "a5.way1.poly1.path3.1x1"
  param {
    lr_mult: 1.0
    decay_mult: 0.0
  }
  param {
    lr_mult: 1.0
    decay_mult: 0.0
  }
  param {
    lr_mult: 0.0
    decay_mult: 0.0
  }
  param {
    lr_mult: 0.0
    decay_mult: 0.0
  }
  bn_param {
    sync_forward: false
    moving_average: true
    decay: 0.99
    scale_filler {
      type: "constant"
      value: 1.0
    }
    shift_filler {
      type: "constant"
      value: 0.0
    }
  }
}
layer {
  name: "a5.way1.poly1.path3.1x1.relu"
  type: "ReLU"
  bottom: "a5.way1.poly1.path3.1x1"
  top: "a5.way1.poly1.path3.1x1"
}
layer {
  name: "a5.way1.poly1.concat"
  type: "Concat"
  bottom: "a5.way1.poly1.path1.3x3.2"
  bottom: "a5.way1.poly1.path2.3x3.1"
  bottom: "a5.way1.poly1.path3.1x1"
  top: "a5.way1.poly1.concat"
}
layer {
  name: "a5.way1.poly1.1x1.conv"
  type: "Convolution"
  bottom: "a5.way1.poly1.concat"
  top: "a5.way1.poly1.1x1.conv"
  param {
    lr_mult: 1.0
    decay_mult: 1.0
  }
  convolution_param {
    num_output: 384
    bias_term: false
    weight_filler {
      type: "xavier"
    }
    bias_filler {
      type: "constant"
      value: 0.0
    }
    pad_h: 0
    pad_w: 0
    kernel_h: 1
    kernel_w: 1
    stride_h: 1
    stride_w: 1
  }
}
layer {
  name: "a5.way1.poly1.1x1.bn"
  type: "BN"
  bottom: "a5.way1.poly1.1x1.conv"
  top: "a5.way1.poly1"
  param {
    lr_mult: 1.0
    decay_mult: 0.0
  }
  param {
    lr_mult: 1.0
    decay_mult: 0.0
  }
  param {
    lr_mult: 0.0
    decay_mult: 0.0
  }
  param {
    lr_mult: 0.0
    decay_mult: 0.0
  }
  bn_param {
    sync_forward: false
    moving_average: true
    decay: 0.99
    scale_filler {
      type: "constant"
      value: 1.0
    }
    shift_filler {
      type: "constant"
      value: 0.0
    }
  }
}
layer {
  name: "a5.elt"
  type: "Eltwise"
  bottom: "a4"
  bottom: "a5.way1.poly1"
  top: "a5"
  eltwise_param {
    operation: SUM
    coeff: 1
    coeff: 0.3
  }
}
layer {
  name: "a5.relu"
  type: "ReLU"
  bottom: "a5"
  top: "a5"
}
layer {
  name: "a6.way1.poly1.path1.1x1.conv"
  type: "Convolution"
  bottom: "a5"
  top: "a6.way1.poly1.path1.1x1.conv"
  param {
    lr_mult: 1.0
    decay_mult: 1.0
  }
  convolution_param {
    num_output: 32
    bias_term: false
    weight_filler {
      type: "xavier"
    }
    bias_filler {
      type: "constant"
      value: 0.0
    }
    pad_h: 0
    pad_w: 0
    kernel_h: 1
    kernel_w: 1
    stride_h: 1
    stride_w: 1
  }
}
layer {
  name: "a6.way1.poly1.path1.1x1.bn"
  type: "BN"
  bottom: "a6.way1.poly1.path1.1x1.conv"
  top: "a6.way1.poly1.path1.1x1"
  param {
    lr_mult: 1.0
    decay_mult: 0.0
  }
  param {
    lr_mult: 1.0
    decay_mult: 0.0
  }
  param {
    lr_mult: 0.0
    decay_mult: 0.0
  }
  param {
    lr_mult: 0.0
    decay_mult: 0.0
  }
  bn_param {
    sync_forward: false
    moving_average: true
    decay: 0.99
    scale_filler {
      type: "constant"
      value: 1.0
    }
    shift_filler {
      type: "constant"
      value: 0.0
    }
  }
}
layer {
  name: "a6.way1.poly1.path1.1x1.relu"
  type: "ReLU"
  bottom: "a6.way1.poly1.path1.1x1"
  top: "a6.way1.poly1.path1.1x1"
}
layer {
  name: "a6.way1.poly1.path1.3x3.1.conv"
  type: "Convolution"
  bottom: "a6.way1.poly1.path1.1x1"
  top: "a6.way1.poly1.path1.3x3.1.conv"
  param {
    lr_mult: 1.0
    decay_mult: 1.0
  }
  convolution_param {
    num_output: 48
    bias_term: false
    weight_filler {
      type: "xavier"
    }
    bias_filler {
      type: "constant"
      value: 0.0
    }
    pad_h: 1
    pad_w: 1
    kernel_h: 3
    kernel_w: 3
    stride_h: 1
    stride_w: 1
  }
}
layer {
  name: "a6.way1.poly1.path1.3x3.1.bn"
  type: "BN"
  bottom: "a6.way1.poly1.path1.3x3.1.conv"
  top: "a6.way1.poly1.path1.3x3.1"
  param {
    lr_mult: 1.0
    decay_mult: 0.0
  }
  param {
    lr_mult: 1.0
    decay_mult: 0.0
  }
  param {
    lr_mult: 0.0
    decay_mult: 0.0
  }
  param {
    lr_mult: 0.0
    decay_mult: 0.0
  }
  bn_param {
    sync_forward: false
    moving_average: true
    decay: 0.99
    scale_filler {
      type: "constant"
      value: 1.0
    }
    shift_filler {
      type: "constant"
      value: 0.0
    }
  }
}
layer {
  name: "a6.way1.poly1.path1.3x3.1.relu"
  type: "ReLU"
  bottom: "a6.way1.poly1.path1.3x3.1"
  top: "a6.way1.poly1.path1.3x3.1"
}
layer {
  name: "a6.way1.poly1.path1.3x3.2.conv"
  type: "Convolution"
  bottom: "a6.way1.poly1.path1.3x3.1"
  top: "a6.way1.poly1.path1.3x3.2.conv"
  param {
    lr_mult: 1.0
    decay_mult: 1.0
  }
  convolution_param {
    num_output: 64
    bias_term: false
    weight_filler {
      type: "xavier"
    }
    bias_filler {
      type: "constant"
      value: 0.0
    }
    pad_h: 1
    pad_w: 1
    kernel_h: 3
    kernel_w: 3
    stride_h: 1
    stride_w: 1
  }
}
layer {
  name: "a6.way1.poly1.path1.3x3.2.bn"
  type: "BN"
  bottom: "a6.way1.poly1.path1.3x3.2.conv"
  top: "a6.way1.poly1.path1.3x3.2"
  param {
    lr_mult: 1.0
    decay_mult: 0.0
  }
  param {
    lr_mult: 1.0
    decay_mult: 0.0
  }
  param {
    lr_mult: 0.0
    decay_mult: 0.0
  }
  param {
    lr_mult: 0.0
    decay_mult: 0.0
  }
  bn_param {
    sync_forward: false
    moving_average: true
    decay: 0.99
    scale_filler {
      type: "constant"
      value: 1.0
    }
    shift_filler {
      type: "constant"
      value: 0.0
    }
  }
}
layer {
  name: "a6.way1.poly1.path1.3x3.2.relu"
  type: "ReLU"
  bottom: "a6.way1.poly1.path1.3x3.2"
  top: "a6.way1.poly1.path1.3x3.2"
}
layer {
  name: "a6.way1.poly1.path2.1x1.conv"
  type: "Convolution"
  bottom: "a5"
  top: "a6.way1.poly1.path2.1x1.conv"
  param {
    lr_mult: 1.0
    decay_mult: 1.0
  }
  convolution_param {
    num_output: 32
    bias_term: false
    weight_filler {
      type: "xavier"
    }
    bias_filler {
      type: "constant"
      value: 0.0
    }
    pad_h: 0
    pad_w: 0
    kernel_h: 1
    kernel_w: 1
    stride_h: 1
    stride_w: 1
  }
}
layer {
  name: "a6.way1.poly1.path2.1x1.bn"
  type: "BN"
  bottom: "a6.way1.poly1.path2.1x1.conv"
  top: "a6.way1.poly1.path2.1x1"
  param {
    lr_mult: 1.0
    decay_mult: 0.0
  }
  param {
    lr_mult: 1.0
    decay_mult: 0.0
  }
  param {
    lr_mult: 0.0
    decay_mult: 0.0
  }
  param {
    lr_mult: 0.0
    decay_mult: 0.0
  }
  bn_param {
    sync_forward: false
    moving_average: true
    decay: 0.99
    scale_filler {
      type: "constant"
      value: 1.0
    }
    shift_filler {
      type: "constant"
      value: 0.0
    }
  }
}
layer {
  name: "a6.way1.poly1.path2.1x1.relu"
  type: "ReLU"
  bottom: "a6.way1.poly1.path2.1x1"
  top: "a6.way1.poly1.path2.1x1"
}
layer {
  name: "a6.way1.poly1.path2.3x3.1.conv"
  type: "Convolution"
  bottom: "a6.way1.poly1.path2.1x1"
  top: "a6.way1.poly1.path2.3x3.1.conv"
  param {
    lr_mult: 1.0
    decay_mult: 1.0
  }
  convolution_param {
    num_output: 32
    bias_term: false
    weight_filler {
      type: "xavier"
    }
    bias_filler {
      type: "constant"
      value: 0.0
    }
    pad_h: 1
    pad_w: 1
    kernel_h: 3
    kernel_w: 3
    stride_h: 1
    stride_w: 1
  }
}
layer {
  name: "a6.way1.poly1.path2.3x3.1.bn"
  type: "BN"
  bottom: "a6.way1.poly1.path2.3x3.1.conv"
  top: "a6.way1.poly1.path2.3x3.1"
  param {
    lr_mult: 1.0
    decay_mult: 0.0
  }
  param {
    lr_mult: 1.0
    decay_mult: 0.0
  }
  param {
    lr_mult: 0.0
    decay_mult: 0.0
  }
  param {
    lr_mult: 0.0
    decay_mult: 0.0
  }
  bn_param {
    sync_forward: false
    moving_average: true
    decay: 0.99
    scale_filler {
      type: "constant"
      value: 1.0
    }
    shift_filler {
      type: "constant"
      value: 0.0
    }
  }
}
layer {
  name: "a6.way1.poly1.path2.3x3.1.relu"
  type: "ReLU"
  bottom: "a6.way1.poly1.path2.3x3.1"
  top: "a6.way1.poly1.path2.3x3.1"
}
layer {
  name: "a6.way1.poly1.path3.1x1.conv"
  type: "Convolution"
  bottom: "a5"
  top: "a6.way1.poly1.path3.1x1.conv"
  param {
    lr_mult: 1.0
    decay_mult: 1.0
  }
  convolution_param {
    num_output: 32
    bias_term: false
    weight_filler {
      type: "xavier"
    }
    bias_filler {
      type: "constant"
      value: 0.0
    }
    pad_h: 0
    pad_w: 0
    kernel_h: 1
    kernel_w: 1
    stride_h: 1
    stride_w: 1
  }
}
layer {
  name: "a6.way1.poly1.path3.1x1.bn"
  type: "BN"
  bottom: "a6.way1.poly1.path3.1x1.conv"
  top: "a6.way1.poly1.path3.1x1"
  param {
    lr_mult: 1.0
    decay_mult: 0.0
  }
  param {
    lr_mult: 1.0
    decay_mult: 0.0
  }
  param {
    lr_mult: 0.0
    decay_mult: 0.0
  }
  param {
    lr_mult: 0.0
    decay_mult: 0.0
  }
  bn_param {
    sync_forward: false
    moving_average: true
    decay: 0.99
    scale_filler {
      type: "constant"
      value: 1.0
    }
    shift_filler {
      type: "constant"
      value: 0.0
    }
  }
}
layer {
  name: "a6.way1.poly1.path3.1x1.relu"
  type: "ReLU"
  bottom: "a6.way1.poly1.path3.1x1"
  top: "a6.way1.poly1.path3.1x1"
}
layer {
  name: "a6.way1.poly1.concat"
  type: "Concat"
  bottom: "a6.way1.poly1.path1.3x3.2"
  bottom: "a6.way1.poly1.path2.3x3.1"
  bottom: "a6.way1.poly1.path3.1x1"
  top: "a6.way1.poly1.concat"
}
layer {
  name: "a6.way1.poly1.1x1.conv"
  type: "Convolution"
  bottom: "a6.way1.poly1.concat"
  top: "a6.way1.poly1.1x1.conv"
  param {
    lr_mult: 1.0
    decay_mult: 1.0
  }
  convolution_param {
    num_output: 384
    bias_term: false
    weight_filler {
      type: "xavier"
    }
    bias_filler {
      type: "constant"
      value: 0.0
    }
    pad_h: 0
    pad_w: 0
    kernel_h: 1
    kernel_w: 1
    stride_h: 1
    stride_w: 1
  }
}
layer {
  name: "a6.way1.poly1.1x1.bn"
  type: "BN"
  bottom: "a6.way1.poly1.1x1.conv"
  top: "a6.way1.poly1"
  param {
    lr_mult: 1.0
    decay_mult: 0.0
  }
  param {
    lr_mult: 1.0
    decay_mult: 0.0
  }
  param {
    lr_mult: 0.0
    decay_mult: 0.0
  }
  param {
    lr_mult: 0.0
    decay_mult: 0.0
  }
  bn_param {
    sync_forward: false
    moving_average: true
    decay: 0.99
    scale_filler {
      type: "constant"
      value: 1.0
    }
    shift_filler {
      type: "constant"
      value: 0.0
    }
  }
}
layer {
  name: "a6.elt"
  type: "Eltwise"
  bottom: "a5"
  bottom: "a6.way1.poly1"
  top: "a6"
  eltwise_param {
    operation: SUM
    coeff: 1
    coeff: 0.3
  }
}
layer {
  name: "a6.relu"
  type: "ReLU"
  bottom: "a6"
  top: "a6"
}
layer {
  name: "a7.way1.poly1.path1.1x1.conv"
  type: "Convolution"
  bottom: "a6"
  top: "a7.way1.poly1.path1.1x1.conv"
  param {
    lr_mult: 1.0
    decay_mult: 1.0
  }
  convolution_param {
    num_output: 32
    bias_term: false
    weight_filler {
      type: "xavier"
    }
    bias_filler {
      type: "constant"
      value: 0.0
    }
    pad_h: 0
    pad_w: 0
    kernel_h: 1
    kernel_w: 1
    stride_h: 1
    stride_w: 1
  }
}
layer {
  name: "a7.way1.poly1.path1.1x1.bn"
  type: "BN"
  bottom: "a7.way1.poly1.path1.1x1.conv"
  top: "a7.way1.poly1.path1.1x1"
  param {
    lr_mult: 1.0
    decay_mult: 0.0
  }
  param {
    lr_mult: 1.0
    decay_mult: 0.0
  }
  param {
    lr_mult: 0.0
    decay_mult: 0.0
  }
  param {
    lr_mult: 0.0
    decay_mult: 0.0
  }
  bn_param {
    sync_forward: false
    moving_average: true
    decay: 0.99
    scale_filler {
      type: "constant"
      value: 1.0
    }
    shift_filler {
      type: "constant"
      value: 0.0
    }
  }
}
layer {
  name: "a7.way1.poly1.path1.1x1.relu"
  type: "ReLU"
  bottom: "a7.way1.poly1.path1.1x1"
  top: "a7.way1.poly1.path1.1x1"
}
layer {
  name: "a7.way1.poly1.path1.3x3.1.conv"
  type: "Convolution"
  bottom: "a7.way1.poly1.path1.1x1"
  top: "a7.way1.poly1.path1.3x3.1.conv"
  param {
    lr_mult: 1.0
    decay_mult: 1.0
  }
  convolution_param {
    num_output: 48
    bias_term: false
    weight_filler {
      type: "xavier"
    }
    bias_filler {
      type: "constant"
      value: 0.0
    }
    pad_h: 1
    pad_w: 1
    kernel_h: 3
    kernel_w: 3
    stride_h: 1
    stride_w: 1
  }
}
layer {
  name: "a7.way1.poly1.path1.3x3.1.bn"
  type: "BN"
  bottom: "a7.way1.poly1.path1.3x3.1.conv"
  top: "a7.way1.poly1.path1.3x3.1"
  param {
    lr_mult: 1.0
    decay_mult: 0.0
  }
  param {
    lr_mult: 1.0
    decay_mult: 0.0
  }
  param {
    lr_mult: 0.0
    decay_mult: 0.0
  }
  param {
    lr_mult: 0.0
    decay_mult: 0.0
  }
  bn_param {
    sync_forward: false
    moving_average: true
    decay: 0.99
    scale_filler {
      type: "constant"
      value: 1.0
    }
    shift_filler {
      type: "constant"
      value: 0.0
    }
  }
}
layer {
  name: "a7.way1.poly1.path1.3x3.1.relu"
  type: "ReLU"
  bottom: "a7.way1.poly1.path1.3x3.1"
  top: "a7.way1.poly1.path1.3x3.1"
}
layer {
  name: "a7.way1.poly1.path1.3x3.2.conv"
  type: "Convolution"
  bottom: "a7.way1.poly1.path1.3x3.1"
  top: "a7.way1.poly1.path1.3x3.2.conv"
  param {
    lr_mult: 1.0
    decay_mult: 1.0
  }
  convolution_param {
    num_output: 64
    bias_term: false
    weight_filler {
      type: "xavier"
    }
    bias_filler {
      type: "constant"
      value: 0.0
    }
    pad_h: 1
    pad_w: 1
    kernel_h: 3
    kernel_w: 3
    stride_h: 1
    stride_w: 1
  }
}
layer {
  name: "a7.way1.poly1.path1.3x3.2.bn"
  type: "BN"
  bottom: "a7.way1.poly1.path1.3x3.2.conv"
  top: "a7.way1.poly1.path1.3x3.2"
  param {
    lr_mult: 1.0
    decay_mult: 0.0
  }
  param {
    lr_mult: 1.0
    decay_mult: 0.0
  }
  param {
    lr_mult: 0.0
    decay_mult: 0.0
  }
  param {
    lr_mult: 0.0
    decay_mult: 0.0
  }
  bn_param {
    sync_forward: false
    moving_average: true
    decay: 0.99
    scale_filler {
      type: "constant"
      value: 1.0
    }
    shift_filler {
      type: "constant"
      value: 0.0
    }
  }
}
layer {
  name: "a7.way1.poly1.path1.3x3.2.relu"
  type: "ReLU"
  bottom: "a7.way1.poly1.path1.3x3.2"
  top: "a7.way1.poly1.path1.3x3.2"
}
layer {
  name: "a7.way1.poly1.path2.1x1.conv"
  type: "Convolution"
  bottom: "a6"
  top: "a7.way1.poly1.path2.1x1.conv"
  param {
    lr_mult: 1.0
    decay_mult: 1.0
  }
  convolution_param {
    num_output: 32
    bias_term: false
    weight_filler {
      type: "xavier"
    }
    bias_filler {
      type: "constant"
      value: 0.0
    }
    pad_h: 0
    pad_w: 0
    kernel_h: 1
    kernel_w: 1
    stride_h: 1
    stride_w: 1
  }
}
layer {
  name: "a7.way1.poly1.path2.1x1.bn"
  type: "BN"
  bottom: "a7.way1.poly1.path2.1x1.conv"
  top: "a7.way1.poly1.path2.1x1"
  param {
    lr_mult: 1.0
    decay_mult: 0.0
  }
  param {
    lr_mult: 1.0
    decay_mult: 0.0
  }
  param {
    lr_mult: 0.0
    decay_mult: 0.0
  }
  param {
    lr_mult: 0.0
    decay_mult: 0.0
  }
  bn_param {
    sync_forward: false
    moving_average: true
    decay: 0.99
    scale_filler {
      type: "constant"
      value: 1.0
    }
    shift_filler {
      type: "constant"
      value: 0.0
    }
  }
}
layer {
  name: "a7.way1.poly1.path2.1x1.relu"
  type: "ReLU"
  bottom: "a7.way1.poly1.path2.1x1"
  top: "a7.way1.poly1.path2.1x1"
}
layer {
  name: "a7.way1.poly1.path2.3x3.1.conv"
  type: "Convolution"
  bottom: "a7.way1.poly1.path2.1x1"
  top: "a7.way1.poly1.path2.3x3.1.conv"
  param {
    lr_mult: 1.0
    decay_mult: 1.0
  }
  convolution_param {
    num_output: 32
    bias_term: false
    weight_filler {
      type: "xavier"
    }
    bias_filler {
      type: "constant"
      value: 0.0
    }
    pad_h: 1
    pad_w: 1
    kernel_h: 3
    kernel_w: 3
    stride_h: 1
    stride_w: 1
  }
}
layer {
  name: "a7.way1.poly1.path2.3x3.1.bn"
  type: "BN"
  bottom: "a7.way1.poly1.path2.3x3.1.conv"
  top: "a7.way1.poly1.path2.3x3.1"
  param {
    lr_mult: 1.0
    decay_mult: 0.0
  }
  param {
    lr_mult: 1.0
    decay_mult: 0.0
  }
  param {
    lr_mult: 0.0
    decay_mult: 0.0
  }
  param {
    lr_mult: 0.0
    decay_mult: 0.0
  }
  bn_param {
    sync_forward: false
    moving_average: true
    decay: 0.99
    scale_filler {
      type: "constant"
      value: 1.0
    }
    shift_filler {
      type: "constant"
      value: 0.0
    }
  }
}
layer {
  name: "a7.way1.poly1.path2.3x3.1.relu"
  type: "ReLU"
  bottom: "a7.way1.poly1.path2.3x3.1"
  top: "a7.way1.poly1.path2.3x3.1"
}
layer {
  name: "a7.way1.poly1.path3.1x1.conv"
  type: "Convolution"
  bottom: "a6"
  top: "a7.way1.poly1.path3.1x1.conv"
  param {
    lr_mult: 1.0
    decay_mult: 1.0
  }
  convolution_param {
    num_output: 32
    bias_term: false
    weight_filler {
      type: "xavier"
    }
    bias_filler {
      type: "constant"
      value: 0.0
    }
    pad_h: 0
    pad_w: 0
    kernel_h: 1
    kernel_w: 1
    stride_h: 1
    stride_w: 1
  }
}
layer {
  name: "a7.way1.poly1.path3.1x1.bn"
  type: "BN"
  bottom: "a7.way1.poly1.path3.1x1.conv"
  top: "a7.way1.poly1.path3.1x1"
  param {
    lr_mult: 1.0
    decay_mult: 0.0
  }
  param {
    lr_mult: 1.0
    decay_mult: 0.0
  }
  param {
    lr_mult: 0.0
    decay_mult: 0.0
  }
  param {
    lr_mult: 0.0
    decay_mult: 0.0
  }
  bn_param {
    sync_forward: false
    moving_average: true
    decay: 0.99
    scale_filler {
      type: "constant"
      value: 1.0
    }
    shift_filler {
      type: "constant"
      value: 0.0
    }
  }
}
layer {
  name: "a7.way1.poly1.path3.1x1.relu"
  type: "ReLU"
  bottom: "a7.way1.poly1.path3.1x1"
  top: "a7.way1.poly1.path3.1x1"
}
layer {
  name: "a7.way1.poly1.concat"
  type: "Concat"
  bottom: "a7.way1.poly1.path1.3x3.2"
  bottom: "a7.way1.poly1.path2.3x3.1"
  bottom: "a7.way1.poly1.path3.1x1"
  top: "a7.way1.poly1.concat"
}
layer {
  name: "a7.way1.poly1.1x1.conv"
  type: "Convolution"
  bottom: "a7.way1.poly1.concat"
  top: "a7.way1.poly1.1x1.conv"
  param {
    lr_mult: 1.0
    decay_mult: 1.0
  }
  convolution_param {
    num_output: 384
    bias_term: false
    weight_filler {
      type: "xavier"
    }
    bias_filler {
      type: "constant"
      value: 0.0
    }
    pad_h: 0
    pad_w: 0
    kernel_h: 1
    kernel_w: 1
    stride_h: 1
    stride_w: 1
  }
}
layer {
  name: "a7.way1.poly1.1x1.bn"
  type: "BN"
  bottom: "a7.way1.poly1.1x1.conv"
  top: "a7.way1.poly1"
  param {
    lr_mult: 1.0
    decay_mult: 0.0
  }
  param {
    lr_mult: 1.0
    decay_mult: 0.0
  }
  param {
    lr_mult: 0.0
    decay_mult: 0.0
  }
  param {
    lr_mult: 0.0
    decay_mult: 0.0
  }
  bn_param {
    sync_forward: false
    moving_average: true
    decay: 0.99
    scale_filler {
      type: "constant"
      value: 1.0
    }
    shift_filler {
      type: "constant"
      value: 0.0
    }
  }
}
layer {
  name: "a7.elt"
  type: "Eltwise"
  bottom: "a6"
  bottom: "a7.way1.poly1"
  top: "a7"
  eltwise_param {
    operation: SUM
    coeff: 1
    coeff: 0.3
  }
}
layer {
  name: "a7.relu"
  type: "ReLU"
  bottom: "a7"
  top: "a7"
}
layer {
  name: "a8.way1.poly1.path1.1x1.conv"
  type: "Convolution"
  bottom: "a7"
  top: "a8.way1.poly1.path1.1x1.conv"
  param {
    lr_mult: 1.0
    decay_mult: 1.0
  }
  convolution_param {
    num_output: 32
    bias_term: false
    weight_filler {
      type: "xavier"
    }
    bias_filler {
      type: "constant"
      value: 0.0
    }
    pad_h: 0
    pad_w: 0
    kernel_h: 1
    kernel_w: 1
    stride_h: 1
    stride_w: 1
  }
}
layer {
  name: "a8.way1.poly1.path1.1x1.bn"
  type: "BN"
  bottom: "a8.way1.poly1.path1.1x1.conv"
  top: "a8.way1.poly1.path1.1x1"
  param {
    lr_mult: 1.0
    decay_mult: 0.0
  }
  param {
    lr_mult: 1.0
    decay_mult: 0.0
  }
  param {
    lr_mult: 0.0
    decay_mult: 0.0
  }
  param {
    lr_mult: 0.0
    decay_mult: 0.0
  }
  bn_param {
    sync_forward: false
    moving_average: true
    decay: 0.99
    scale_filler {
      type: "constant"
      value: 1.0
    }
    shift_filler {
      type: "constant"
      value: 0.0
    }
  }
}
layer {
  name: "a8.way1.poly1.path1.1x1.relu"
  type: "ReLU"
  bottom: "a8.way1.poly1.path1.1x1"
  top: "a8.way1.poly1.path1.1x1"
}
layer {
  name: "a8.way1.poly1.path1.3x3.1.conv"
  type: "Convolution"
  bottom: "a8.way1.poly1.path1.1x1"
  top: "a8.way1.poly1.path1.3x3.1.conv"
  param {
    lr_mult: 1.0
    decay_mult: 1.0
  }
  convolution_param {
    num_output: 48
    bias_term: false
    weight_filler {
      type: "xavier"
    }
    bias_filler {
      type: "constant"
      value: 0.0
    }
    pad_h: 1
    pad_w: 1
    kernel_h: 3
    kernel_w: 3
    stride_h: 1
    stride_w: 1
  }
}
layer {
  name: "a8.way1.poly1.path1.3x3.1.bn"
  type: "BN"
  bottom: "a8.way1.poly1.path1.3x3.1.conv"
  top: "a8.way1.poly1.path1.3x3.1"
  param {
    lr_mult: 1.0
    decay_mult: 0.0
  }
  param {
    lr_mult: 1.0
    decay_mult: 0.0
  }
  param {
    lr_mult: 0.0
    decay_mult: 0.0
  }
  param {
    lr_mult: 0.0
    decay_mult: 0.0
  }
  bn_param {
    sync_forward: false
    moving_average: true
    decay: 0.99
    scale_filler {
      type: "constant"
      value: 1.0
    }
    shift_filler {
      type: "constant"
      value: 0.0
    }
  }
}
layer {
  name: "a8.way1.poly1.path1.3x3.1.relu"
  type: "ReLU"
  bottom: "a8.way1.poly1.path1.3x3.1"
  top: "a8.way1.poly1.path1.3x3.1"
}
layer {
  name: "a8.way1.poly1.path1.3x3.2.conv"
  type: "Convolution"
  bottom: "a8.way1.poly1.path1.3x3.1"
  top: "a8.way1.poly1.path1.3x3.2.conv"
  param {
    lr_mult: 1.0
    decay_mult: 1.0
  }
  convolution_param {
    num_output: 64
    bias_term: false
    weight_filler {
      type: "xavier"
    }
    bias_filler {
      type: "constant"
      value: 0.0
    }
    pad_h: 1
    pad_w: 1
    kernel_h: 3
    kernel_w: 3
    stride_h: 1
    stride_w: 1
  }
}
layer {
  name: "a8.way1.poly1.path1.3x3.2.bn"
  type: "BN"
  bottom: "a8.way1.poly1.path1.3x3.2.conv"
  top: "a8.way1.poly1.path1.3x3.2"
  param {
    lr_mult: 1.0
    decay_mult: 0.0
  }
  param {
    lr_mult: 1.0
    decay_mult: 0.0
  }
  param {
    lr_mult: 0.0
    decay_mult: 0.0
  }
  param {
    lr_mult: 0.0
    decay_mult: 0.0
  }
  bn_param {
    sync_forward: false
    moving_average: true
    decay: 0.99
    scale_filler {
      type: "constant"
      value: 1.0
    }
    shift_filler {
      type: "constant"
      value: 0.0
    }
  }
}
layer {
  name: "a8.way1.poly1.path1.3x3.2.relu"
  type: "ReLU"
  bottom: "a8.way1.poly1.path1.3x3.2"
  top: "a8.way1.poly1.path1.3x3.2"
}
layer {
  name: "a8.way1.poly1.path2.1x1.conv"
  type: "Convolution"
  bottom: "a7"
  top: "a8.way1.poly1.path2.1x1.conv"
  param {
    lr_mult: 1.0
    decay_mult: 1.0
  }
  convolution_param {
    num_output: 32
    bias_term: false
    weight_filler {
      type: "xavier"
    }
    bias_filler {
      type: "constant"
      value: 0.0
    }
    pad_h: 0
    pad_w: 0
    kernel_h: 1
    kernel_w: 1
    stride_h: 1
    stride_w: 1
  }
}
layer {
  name: "a8.way1.poly1.path2.1x1.bn"
  type: "BN"
  bottom: "a8.way1.poly1.path2.1x1.conv"
  top: "a8.way1.poly1.path2.1x1"
  param {
    lr_mult: 1.0
    decay_mult: 0.0
  }
  param {
    lr_mult: 1.0
    decay_mult: 0.0
  }
  param {
    lr_mult: 0.0
    decay_mult: 0.0
  }
  param {
    lr_mult: 0.0
    decay_mult: 0.0
  }
  bn_param {
    sync_forward: false
    moving_average: true
    decay: 0.99
    scale_filler {
      type: "constant"
      value: 1.0
    }
    shift_filler {
      type: "constant"
      value: 0.0
    }
  }
}
layer {
  name: "a8.way1.poly1.path2.1x1.relu"
  type: "ReLU"
  bottom: "a8.way1.poly1.path2.1x1"
  top: "a8.way1.poly1.path2.1x1"
}
layer {
  name: "a8.way1.poly1.path2.3x3.1.conv"
  type: "Convolution"
  bottom: "a8.way1.poly1.path2.1x1"
  top: "a8.way1.poly1.path2.3x3.1.conv"
  param {
    lr_mult: 1.0
    decay_mult: 1.0
  }
  convolution_param {
    num_output: 32
    bias_term: false
    weight_filler {
      type: "xavier"
    }
    bias_filler {
      type: "constant"
      value: 0.0
    }
    pad_h: 1
    pad_w: 1
    kernel_h: 3
    kernel_w: 3
    stride_h: 1
    stride_w: 1
  }
}
layer {
  name: "a8.way1.poly1.path2.3x3.1.bn"
  type: "BN"
  bottom: "a8.way1.poly1.path2.3x3.1.conv"
  top: "a8.way1.poly1.path2.3x3.1"
  param {
    lr_mult: 1.0
    decay_mult: 0.0
  }
  param {
    lr_mult: 1.0
    decay_mult: 0.0
  }
  param {
    lr_mult: 0.0
    decay_mult: 0.0
  }
  param {
    lr_mult: 0.0
    decay_mult: 0.0
  }
  bn_param {
    sync_forward: false
    moving_average: true
    decay: 0.99
    scale_filler {
      type: "constant"
      value: 1.0
    }
    shift_filler {
      type: "constant"
      value: 0.0
    }
  }
}
layer {
  name: "a8.way1.poly1.path2.3x3.1.relu"
  type: "ReLU"
  bottom: "a8.way1.poly1.path2.3x3.1"
  top: "a8.way1.poly1.path2.3x3.1"
}
layer {
  name: "a8.way1.poly1.path3.1x1.conv"
  type: "Convolution"
  bottom: "a7"
  top: "a8.way1.poly1.path3.1x1.conv"
  param {
    lr_mult: 1.0
    decay_mult: 1.0
  }
  convolution_param {
    num_output: 32
    bias_term: false
    weight_filler {
      type: "xavier"
    }
    bias_filler {
      type: "constant"
      value: 0.0
    }
    pad_h: 0
    pad_w: 0
    kernel_h: 1
    kernel_w: 1
    stride_h: 1
    stride_w: 1
  }
}
layer {
  name: "a8.way1.poly1.path3.1x1.bn"
  type: "BN"
  bottom: "a8.way1.poly1.path3.1x1.conv"
  top: "a8.way1.poly1.path3.1x1"
  param {
    lr_mult: 1.0
    decay_mult: 0.0
  }
  param {
    lr_mult: 1.0
    decay_mult: 0.0
  }
  param {
    lr_mult: 0.0
    decay_mult: 0.0
  }
  param {
    lr_mult: 0.0
    decay_mult: 0.0
  }
  bn_param {
    sync_forward: false
    moving_average: true
    decay: 0.99
    scale_filler {
      type: "constant"
      value: 1.0
    }
    shift_filler {
      type: "constant"
      value: 0.0
    }
  }
}
layer {
  name: "a8.way1.poly1.path3.1x1.relu"
  type: "ReLU"
  bottom: "a8.way1.poly1.path3.1x1"
  top: "a8.way1.poly1.path3.1x1"
}
layer {
  name: "a8.way1.poly1.concat"
  type: "Concat"
  bottom: "a8.way1.poly1.path1.3x3.2"
  bottom: "a8.way1.poly1.path2.3x3.1"
  bottom: "a8.way1.poly1.path3.1x1"
  top: "a8.way1.poly1.concat"
}
layer {
  name: "a8.way1.poly1.1x1.conv"
  type: "Convolution"
  bottom: "a8.way1.poly1.concat"
  top: "a8.way1.poly1.1x1.conv"
  param {
    lr_mult: 1.0
    decay_mult: 1.0
  }
  convolution_param {
    num_output: 384
    bias_term: false
    weight_filler {
      type: "xavier"
    }
    bias_filler {
      type: "constant"
      value: 0.0
    }
    pad_h: 0
    pad_w: 0
    kernel_h: 1
    kernel_w: 1
    stride_h: 1
    stride_w: 1
  }
}
layer {
  name: "a8.way1.poly1.1x1.bn"
  type: "BN"
  bottom: "a8.way1.poly1.1x1.conv"
  top: "a8.way1.poly1"
  param {
    lr_mult: 1.0
    decay_mult: 0.0
  }
  param {
    lr_mult: 1.0
    decay_mult: 0.0
  }
  param {
    lr_mult: 0.0
    decay_mult: 0.0
  }
  param {
    lr_mult: 0.0
    decay_mult: 0.0
  }
  bn_param {
    sync_forward: false
    moving_average: true
    decay: 0.99
    scale_filler {
      type: "constant"
      value: 1.0
    }
    shift_filler {
      type: "constant"
      value: 0.0
    }
  }
}
layer {
  name: "a8.elt"
  type: "Eltwise"
  bottom: "a7"
  bottom: "a8.way1.poly1"
  top: "a8"
  eltwise_param {
    operation: SUM
    coeff: 1
    coeff: 0.3
  }
}
layer {
  name: "a8.relu"
  type: "ReLU"
  bottom: "a8"
  top: "a8"
}
layer {
  name: "a9.way1.poly1.path1.1x1.conv"
  type: "Convolution"
  bottom: "a8"
  top: "a9.way1.poly1.path1.1x1.conv"
  param {
    lr_mult: 1.0
    decay_mult: 1.0
  }
  convolution_param {
    num_output: 32
    bias_term: false
    weight_filler {
      type: "xavier"
    }
    bias_filler {
      type: "constant"
      value: 0.0
    }
    pad_h: 0
    pad_w: 0
    kernel_h: 1
    kernel_w: 1
    stride_h: 1
    stride_w: 1
  }
}
layer {
  name: "a9.way1.poly1.path1.1x1.bn"
  type: "BN"
  bottom: "a9.way1.poly1.path1.1x1.conv"
  top: "a9.way1.poly1.path1.1x1"
  param {
    lr_mult: 1.0
    decay_mult: 0.0
  }
  param {
    lr_mult: 1.0
    decay_mult: 0.0
  }
  param {
    lr_mult: 0.0
    decay_mult: 0.0
  }
  param {
    lr_mult: 0.0
    decay_mult: 0.0
  }
  bn_param {
    sync_forward: false
    moving_average: true
    decay: 0.99
    scale_filler {
      type: "constant"
      value: 1.0
    }
    shift_filler {
      type: "constant"
      value: 0.0
    }
  }
}
layer {
  name: "a9.way1.poly1.path1.1x1.relu"
  type: "ReLU"
  bottom: "a9.way1.poly1.path1.1x1"
  top: "a9.way1.poly1.path1.1x1"
}
layer {
  name: "a9.way1.poly1.path1.3x3.1.conv"
  type: "Convolution"
  bottom: "a9.way1.poly1.path1.1x1"
  top: "a9.way1.poly1.path1.3x3.1.conv"
  param {
    lr_mult: 1.0
    decay_mult: 1.0
  }
  convolution_param {
    num_output: 48
    bias_term: false
    weight_filler {
      type: "xavier"
    }
    bias_filler {
      type: "constant"
      value: 0.0
    }
    pad_h: 1
    pad_w: 1
    kernel_h: 3
    kernel_w: 3
    stride_h: 1
    stride_w: 1
  }
}
layer {
  name: "a9.way1.poly1.path1.3x3.1.bn"
  type: "BN"
  bottom: "a9.way1.poly1.path1.3x3.1.conv"
  top: "a9.way1.poly1.path1.3x3.1"
  param {
    lr_mult: 1.0
    decay_mult: 0.0
  }
  param {
    lr_mult: 1.0
    decay_mult: 0.0
  }
  param {
    lr_mult: 0.0
    decay_mult: 0.0
  }
  param {
    lr_mult: 0.0
    decay_mult: 0.0
  }
  bn_param {
    sync_forward: false
    moving_average: true
    decay: 0.99
    scale_filler {
      type: "constant"
      value: 1.0
    }
    shift_filler {
      type: "constant"
      value: 0.0
    }
  }
}
layer {
  name: "a9.way1.poly1.path1.3x3.1.relu"
  type: "ReLU"
  bottom: "a9.way1.poly1.path1.3x3.1"
  top: "a9.way1.poly1.path1.3x3.1"
}
layer {
  name: "a9.way1.poly1.path1.3x3.2.conv"
  type: "Convolution"
  bottom: "a9.way1.poly1.path1.3x3.1"
  top: "a9.way1.poly1.path1.3x3.2.conv"
  param {
    lr_mult: 1.0
    decay_mult: 1.0
  }
  convolution_param {
    num_output: 64
    bias_term: false
    weight_filler {
      type: "xavier"
    }
    bias_filler {
      type: "constant"
      value: 0.0
    }
    pad_h: 1
    pad_w: 1
    kernel_h: 3
    kernel_w: 3
    stride_h: 1
    stride_w: 1
  }
}
layer {
  name: "a9.way1.poly1.path1.3x3.2.bn"
  type: "BN"
  bottom: "a9.way1.poly1.path1.3x3.2.conv"
  top: "a9.way1.poly1.path1.3x3.2"
  param {
    lr_mult: 1.0
    decay_mult: 0.0
  }
  param {
    lr_mult: 1.0
    decay_mult: 0.0
  }
  param {
    lr_mult: 0.0
    decay_mult: 0.0
  }
  param {
    lr_mult: 0.0
    decay_mult: 0.0
  }
  bn_param {
    sync_forward: false
    moving_average: true
    decay: 0.99
    scale_filler {
      type: "constant"
      value: 1.0
    }
    shift_filler {
      type: "constant"
      value: 0.0
    }
  }
}
layer {
  name: "a9.way1.poly1.path1.3x3.2.relu"
  type: "ReLU"
  bottom: "a9.way1.poly1.path1.3x3.2"
  top: "a9.way1.poly1.path1.3x3.2"
}
layer {
  name: "a9.way1.poly1.path2.1x1.conv"
  type: "Convolution"
  bottom: "a8"
  top: "a9.way1.poly1.path2.1x1.conv"
  param {
    lr_mult: 1.0
    decay_mult: 1.0
  }
  convolution_param {
    num_output: 32
    bias_term: false
    weight_filler {
      type: "xavier"
    }
    bias_filler {
      type: "constant"
      value: 0.0
    }
    pad_h: 0
    pad_w: 0
    kernel_h: 1
    kernel_w: 1
    stride_h: 1
    stride_w: 1
  }
}
layer {
  name: "a9.way1.poly1.path2.1x1.bn"
  type: "BN"
  bottom: "a9.way1.poly1.path2.1x1.conv"
  top: "a9.way1.poly1.path2.1x1"
  param {
    lr_mult: 1.0
    decay_mult: 0.0
  }
  param {
    lr_mult: 1.0
    decay_mult: 0.0
  }
  param {
    lr_mult: 0.0
    decay_mult: 0.0
  }
  param {
    lr_mult: 0.0
    decay_mult: 0.0
  }
  bn_param {
    sync_forward: false
    moving_average: true
    decay: 0.99
    scale_filler {
      type: "constant"
      value: 1.0
    }
    shift_filler {
      type: "constant"
      value: 0.0
    }
  }
}
layer {
  name: "a9.way1.poly1.path2.1x1.relu"
  type: "ReLU"
  bottom: "a9.way1.poly1.path2.1x1"
  top: "a9.way1.poly1.path2.1x1"
}
layer {
  name: "a9.way1.poly1.path2.3x3.1.conv"
  type: "Convolution"
  bottom: "a9.way1.poly1.path2.1x1"
  top: "a9.way1.poly1.path2.3x3.1.conv"
  param {
    lr_mult: 1.0
    decay_mult: 1.0
  }
  convolution_param {
    num_output: 32
    bias_term: false
    weight_filler {
      type: "xavier"
    }
    bias_filler {
      type: "constant"
      value: 0.0
    }
    pad_h: 1
    pad_w: 1
    kernel_h: 3
    kernel_w: 3
    stride_h: 1
    stride_w: 1
  }
}
layer {
  name: "a9.way1.poly1.path2.3x3.1.bn"
  type: "BN"
  bottom: "a9.way1.poly1.path2.3x3.1.conv"
  top: "a9.way1.poly1.path2.3x3.1"
  param {
    lr_mult: 1.0
    decay_mult: 0.0
  }
  param {
    lr_mult: 1.0
    decay_mult: 0.0
  }
  param {
    lr_mult: 0.0
    decay_mult: 0.0
  }
  param {
    lr_mult: 0.0
    decay_mult: 0.0
  }
  bn_param {
    sync_forward: false
    moving_average: true
    decay: 0.99
    scale_filler {
      type: "constant"
      value: 1.0
    }
    shift_filler {
      type: "constant"
      value: 0.0
    }
  }
}
layer {
  name: "a9.way1.poly1.path2.3x3.1.relu"
  type: "ReLU"
  bottom: "a9.way1.poly1.path2.3x3.1"
  top: "a9.way1.poly1.path2.3x3.1"
}
layer {
  name: "a9.way1.poly1.path3.1x1.conv"
  type: "Convolution"
  bottom: "a8"
  top: "a9.way1.poly1.path3.1x1.conv"
  param {
    lr_mult: 1.0
    decay_mult: 1.0
  }
  convolution_param {
    num_output: 32
    bias_term: false
    weight_filler {
      type: "xavier"
    }
    bias_filler {
      type: "constant"
      value: 0.0
    }
    pad_h: 0
    pad_w: 0
    kernel_h: 1
    kernel_w: 1
    stride_h: 1
    stride_w: 1
  }
}
layer {
  name: "a9.way1.poly1.path3.1x1.bn"
  type: "BN"
  bottom: "a9.way1.poly1.path3.1x1.conv"
  top: "a9.way1.poly1.path3.1x1"
  param {
    lr_mult: 1.0
    decay_mult: 0.0
  }
  param {
    lr_mult: 1.0
    decay_mult: 0.0
  }
  param {
    lr_mult: 0.0
    decay_mult: 0.0
  }
  param {
    lr_mult: 0.0
    decay_mult: 0.0
  }
  bn_param {
    sync_forward: false
    moving_average: true
    decay: 0.99
    scale_filler {
      type: "constant"
      value: 1.0
    }
    shift_filler {
      type: "constant"
      value: 0.0
    }
  }
}
layer {
  name: "a9.way1.poly1.path3.1x1.relu"
  type: "ReLU"
  bottom: "a9.way1.poly1.path3.1x1"
  top: "a9.way1.poly1.path3.1x1"
}
layer {
  name: "a9.way1.poly1.concat"
  type: "Concat"
  bottom: "a9.way1.poly1.path1.3x3.2"
  bottom: "a9.way1.poly1.path2.3x3.1"
  bottom: "a9.way1.poly1.path3.1x1"
  top: "a9.way1.poly1.concat"
}
layer {
  name: "a9.way1.poly1.1x1.conv"
  type: "Convolution"
  bottom: "a9.way1.poly1.concat"
  top: "a9.way1.poly1.1x1.conv"
  param {
    lr_mult: 1.0
    decay_mult: 1.0
  }
  convolution_param {
    num_output: 384
    bias_term: false
    weight_filler {
      type: "xavier"
    }
    bias_filler {
      type: "constant"
      value: 0.0
    }
    pad_h: 0
    pad_w: 0
    kernel_h: 1
    kernel_w: 1
    stride_h: 1
    stride_w: 1
  }
}
layer {
  name: "a9.way1.poly1.1x1.bn"
  type: "BN"
  bottom: "a9.way1.poly1.1x1.conv"
  top: "a9.way1.poly1"
  param {
    lr_mult: 1.0
    decay_mult: 0.0
  }
  param {
    lr_mult: 1.0
    decay_mult: 0.0
  }
  param {
    lr_mult: 0.0
    decay_mult: 0.0
  }
  param {
    lr_mult: 0.0
    decay_mult: 0.0
  }
  bn_param {
    sync_forward: false
    moving_average: true
    decay: 0.99
    scale_filler {
      type: "constant"
      value: 1.0
    }
    shift_filler {
      type: "constant"
      value: 0.0
    }
  }
}
layer {
  name: "a9.elt"
  type: "Eltwise"
  bottom: "a8"
  bottom: "a9.way1.poly1"
  top: "a9"
  eltwise_param {
    operation: SUM
    coeff: 1
    coeff: 0.3
  }
}
layer {
  name: "a9.relu"
  type: "ReLU"
  bottom: "a9"
  top: "a9"
}
layer {
  name: "a10.way1.poly1.path1.1x1.conv"
  type: "Convolution"
  bottom: "a9"
  top: "a10.way1.poly1.path1.1x1.conv"
  param {
    lr_mult: 1.0
    decay_mult: 1.0
  }
  convolution_param {
    num_output: 32
    bias_term: false
    weight_filler {
      type: "xavier"
    }
    bias_filler {
      type: "constant"
      value: 0.0
    }
    pad_h: 0
    pad_w: 0
    kernel_h: 1
    kernel_w: 1
    stride_h: 1
    stride_w: 1
  }
}
layer {
  name: "a10.way1.poly1.path1.1x1.bn"
  type: "BN"
  bottom: "a10.way1.poly1.path1.1x1.conv"
  top: "a10.way1.poly1.path1.1x1"
  param {
    lr_mult: 1.0
    decay_mult: 0.0
  }
  param {
    lr_mult: 1.0
    decay_mult: 0.0
  }
  param {
    lr_mult: 0.0
    decay_mult: 0.0
  }
  param {
    lr_mult: 0.0
    decay_mult: 0.0
  }
  bn_param {
    sync_forward: false
    moving_average: true
    decay: 0.99
    scale_filler {
      type: "constant"
      value: 1.0
    }
    shift_filler {
      type: "constant"
      value: 0.0
    }
  }
}
layer {
  name: "a10.way1.poly1.path1.1x1.relu"
  type: "ReLU"
  bottom: "a10.way1.poly1.path1.1x1"
  top: "a10.way1.poly1.path1.1x1"
}
layer {
  name: "a10.way1.poly1.path1.3x3.1.conv"
  type: "Convolution"
  bottom: "a10.way1.poly1.path1.1x1"
  top: "a10.way1.poly1.path1.3x3.1.conv"
  param {
    lr_mult: 1.0
    decay_mult: 1.0
  }
  convolution_param {
    num_output: 48
    bias_term: false
    weight_filler {
      type: "xavier"
    }
    bias_filler {
      type: "constant"
      value: 0.0
    }
    pad_h: 1
    pad_w: 1
    kernel_h: 3
    kernel_w: 3
    stride_h: 1
    stride_w: 1
  }
}
layer {
  name: "a10.way1.poly1.path1.3x3.1.bn"
  type: "BN"
  bottom: "a10.way1.poly1.path1.3x3.1.conv"
  top: "a10.way1.poly1.path1.3x3.1"
  param {
    lr_mult: 1.0
    decay_mult: 0.0
  }
  param {
    lr_mult: 1.0
    decay_mult: 0.0
  }
  param {
    lr_mult: 0.0
    decay_mult: 0.0
  }
  param {
    lr_mult: 0.0
    decay_mult: 0.0
  }
  bn_param {
    sync_forward: false
    moving_average: true
    decay: 0.99
    scale_filler {
      type: "constant"
      value: 1.0
    }
    shift_filler {
      type: "constant"
      value: 0.0
    }
  }
}
layer {
  name: "a10.way1.poly1.path1.3x3.1.relu"
  type: "ReLU"
  bottom: "a10.way1.poly1.path1.3x3.1"
  top: "a10.way1.poly1.path1.3x3.1"
}
layer {
  name: "a10.way1.poly1.path1.3x3.2.conv"
  type: "Convolution"
  bottom: "a10.way1.poly1.path1.3x3.1"
  top: "a10.way1.poly1.path1.3x3.2.conv"
  param {
    lr_mult: 1.0
    decay_mult: 1.0
  }
  convolution_param {
    num_output: 64
    bias_term: false
    weight_filler {
      type: "xavier"
    }
    bias_filler {
      type: "constant"
      value: 0.0
    }
    pad_h: 1
    pad_w: 1
    kernel_h: 3
    kernel_w: 3
    stride_h: 1
    stride_w: 1
  }
}
layer {
  name: "a10.way1.poly1.path1.3x3.2.bn"
  type: "BN"
  bottom: "a10.way1.poly1.path1.3x3.2.conv"
  top: "a10.way1.poly1.path1.3x3.2"
  param {
    lr_mult: 1.0
    decay_mult: 0.0
  }
  param {
    lr_mult: 1.0
    decay_mult: 0.0
  }
  param {
    lr_mult: 0.0
    decay_mult: 0.0
  }
  param {
    lr_mult: 0.0
    decay_mult: 0.0
  }
  bn_param {
    sync_forward: false
    moving_average: true
    decay: 0.99
    scale_filler {
      type: "constant"
      value: 1.0
    }
    shift_filler {
      type: "constant"
      value: 0.0
    }
  }
}
layer {
  name: "a10.way1.poly1.path1.3x3.2.relu"
  type: "ReLU"
  bottom: "a10.way1.poly1.path1.3x3.2"
  top: "a10.way1.poly1.path1.3x3.2"
}
layer {
  name: "a10.way1.poly1.path2.1x1.conv"
  type: "Convolution"
  bottom: "a9"
  top: "a10.way1.poly1.path2.1x1.conv"
  param {
    lr_mult: 1.0
    decay_mult: 1.0
  }
  convolution_param {
    num_output: 32
    bias_term: false
    weight_filler {
      type: "xavier"
    }
    bias_filler {
      type: "constant"
      value: 0.0
    }
    pad_h: 0
    pad_w: 0
    kernel_h: 1
    kernel_w: 1
    stride_h: 1
    stride_w: 1
  }
}
layer {
  name: "a10.way1.poly1.path2.1x1.bn"
  type: "BN"
  bottom: "a10.way1.poly1.path2.1x1.conv"
  top: "a10.way1.poly1.path2.1x1"
  param {
    lr_mult: 1.0
    decay_mult: 0.0
  }
  param {
    lr_mult: 1.0
    decay_mult: 0.0
  }
  param {
    lr_mult: 0.0
    decay_mult: 0.0
  }
  param {
    lr_mult: 0.0
    decay_mult: 0.0
  }
  bn_param {
    sync_forward: false
    moving_average: true
    decay: 0.99
    scale_filler {
      type: "constant"
      value: 1.0
    }
    shift_filler {
      type: "constant"
      value: 0.0
    }
  }
}
layer {
  name: "a10.way1.poly1.path2.1x1.relu"
  type: "ReLU"
  bottom: "a10.way1.poly1.path2.1x1"
  top: "a10.way1.poly1.path2.1x1"
}
layer {
  name: "a10.way1.poly1.path2.3x3.1.conv"
  type: "Convolution"
  bottom: "a10.way1.poly1.path2.1x1"
  top: "a10.way1.poly1.path2.3x3.1.conv"
  param {
    lr_mult: 1.0
    decay_mult: 1.0
  }
  convolution_param {
    num_output: 32
    bias_term: false
    weight_filler {
      type: "xavier"
    }
    bias_filler {
      type: "constant"
      value: 0.0
    }
    pad_h: 1
    pad_w: 1
    kernel_h: 3
    kernel_w: 3
    stride_h: 1
    stride_w: 1
  }
}
layer {
  name: "a10.way1.poly1.path2.3x3.1.bn"
  type: "BN"
  bottom: "a10.way1.poly1.path2.3x3.1.conv"
  top: "a10.way1.poly1.path2.3x3.1"
  param {
    lr_mult: 1.0
    decay_mult: 0.0
  }
  param {
    lr_mult: 1.0
    decay_mult: 0.0
  }
  param {
    lr_mult: 0.0
    decay_mult: 0.0
  }
  param {
    lr_mult: 0.0
    decay_mult: 0.0
  }
  bn_param {
    sync_forward: false
    moving_average: true
    decay: 0.99
    scale_filler {
      type: "constant"
      value: 1.0
    }
    shift_filler {
      type: "constant"
      value: 0.0
    }
  }
}
layer {
  name: "a10.way1.poly1.path2.3x3.1.relu"
  type: "ReLU"
  bottom: "a10.way1.poly1.path2.3x3.1"
  top: "a10.way1.poly1.path2.3x3.1"
}
layer {
  name: "a10.way1.poly1.path3.1x1.conv"
  type: "Convolution"
  bottom: "a9"
  top: "a10.way1.poly1.path3.1x1.conv"
  param {
    lr_mult: 1.0
    decay_mult: 1.0
  }
  convolution_param {
    num_output: 32
    bias_term: false
    weight_filler {
      type: "xavier"
    }
    bias_filler {
      type: "constant"
      value: 0.0
    }
    pad_h: 0
    pad_w: 0
    kernel_h: 1
    kernel_w: 1
    stride_h: 1
    stride_w: 1
  }
}
layer {
  name: "a10.way1.poly1.path3.1x1.bn"
  type: "BN"
  bottom: "a10.way1.poly1.path3.1x1.conv"
  top: "a10.way1.poly1.path3.1x1"
  param {
    lr_mult: 1.0
    decay_mult: 0.0
  }
  param {
    lr_mult: 1.0
    decay_mult: 0.0
  }
  param {
    lr_mult: 0.0
    decay_mult: 0.0
  }
  param {
    lr_mult: 0.0
    decay_mult: 0.0
  }
  bn_param {
    sync_forward: false
    moving_average: true
    decay: 0.99
    scale_filler {
      type: "constant"
      value: 1.0
    }
    shift_filler {
      type: "constant"
      value: 0.0
    }
  }
}
layer {
  name: "a10.way1.poly1.path3.1x1.relu"
  type: "ReLU"
  bottom: "a10.way1.poly1.path3.1x1"
  top: "a10.way1.poly1.path3.1x1"
}
layer {
  name: "a10.way1.poly1.concat"
  type: "Concat"
  bottom: "a10.way1.poly1.path1.3x3.2"
  bottom: "a10.way1.poly1.path2.3x3.1"
  bottom: "a10.way1.poly1.path3.1x1"
  top: "a10.way1.poly1.concat"
}
layer {
  name: "a10.way1.poly1.1x1.conv"
  type: "Convolution"
  bottom: "a10.way1.poly1.concat"
  top: "a10.way1.poly1.1x1.conv"
  param {
    lr_mult: 1.0
    decay_mult: 1.0
  }
  convolution_param {
    num_output: 384
    bias_term: false
    weight_filler {
      type: "xavier"
    }
    bias_filler {
      type: "constant"
      value: 0.0
    }
    pad_h: 0
    pad_w: 0
    kernel_h: 1
    kernel_w: 1
    stride_h: 1
    stride_w: 1
  }
}
layer {
  name: "a10.way1.poly1.1x1.bn"
  type: "BN"
  bottom: "a10.way1.poly1.1x1.conv"
  top: "a10.way1.poly1"
  param {
    lr_mult: 1.0
    decay_mult: 0.0
  }
  param {
    lr_mult: 1.0
    decay_mult: 0.0
  }
  param {
    lr_mult: 0.0
    decay_mult: 0.0
  }
  param {
    lr_mult: 0.0
    decay_mult: 0.0
  }
  bn_param {
    sync_forward: false
    moving_average: true
    decay: 0.99
    scale_filler {
      type: "constant"
      value: 1.0
    }
    shift_filler {
      type: "constant"
      value: 0.0
    }
  }
}
layer {
  name: "a10.elt"
  type: "Eltwise"
  bottom: "a9"
  bottom: "a10.way1.poly1"
  top: "a10"
  eltwise_param {
    operation: SUM
    coeff: 1
    coeff: 0.3
  }
}
layer {
  name: "a10.relu"
  type: "ReLU"
  bottom: "a10"
  top: "a10"
}
layer {
  name: "a2b.path1.1x1.conv"
  type: "Convolution"
  bottom: "a10"
  top: "a2b.path1.1x1.conv"
  param {
    lr_mult: 1.0
    decay_mult: 1.0
  }
  convolution_param {
    num_output: 256
    bias_term: false
    weight_filler {
      type: "xavier"
    }
    bias_filler {
      type: "constant"
      value: 0.0
    }
    pad_h: 0
    pad_w: 0
    kernel_h: 1
    kernel_w: 1
    stride_h: 1
    stride_w: 1
  }
}
layer {
  name: "a2b.path1.1x1.bn"
  type: "BN"
  bottom: "a2b.path1.1x1.conv"
  top: "a2b.path1.1x1"
  param {
    lr_mult: 1.0
    decay_mult: 0.0
  }
  param {
    lr_mult: 1.0
    decay_mult: 0.0
  }
  param {
    lr_mult: 0.0
    decay_mult: 0.0
  }
  param {
    lr_mult: 0.0
    decay_mult: 0.0
  }
  bn_param {
    sync_forward: false
    moving_average: true
    decay: 0.99
    scale_filler {
      type: "constant"
      value: 1.0
    }
    shift_filler {
      type: "constant"
      value: 0.0
    }
  }
}
layer {
  name: "a2b.path1.1x1.relu"
  type: "ReLU"
  bottom: "a2b.path1.1x1"
  top: "a2b.path1.1x1"
}
layer {
  name: "a2b.path1.3x3.1.conv"
  type: "Convolution"
  bottom: "a2b.path1.1x1"
  top: "a2b.path1.3x3.1.conv"
  param {
    lr_mult: 1.0
    decay_mult: 1.0
  }
  convolution_param {
    num_output: 256
    bias_term: false
    weight_filler {
      type: "xavier"
    }
    bias_filler {
      type: "constant"
      value: 0.0
    }
    pad_h: 1
    pad_w: 1
    kernel_h: 3
    kernel_w: 3
    stride_h: 1
    stride_w: 1
  }
}
layer {
  name: "a2b.path1.3x3.1.bn"
  type: "BN"
  bottom: "a2b.path1.3x3.1.conv"
  top: "a2b.path1.3x3.1"
  param {
    lr_mult: 1.0
    decay_mult: 0.0
  }
  param {
    lr_mult: 1.0
    decay_mult: 0.0
  }
  param {
    lr_mult: 0.0
    decay_mult: 0.0
  }
  param {
    lr_mult: 0.0
    decay_mult: 0.0
  }
  bn_param {
    sync_forward: false
    moving_average: true
    decay: 0.99
    scale_filler {
      type: "constant"
      value: 1.0
    }
    shift_filler {
      type: "constant"
      value: 0.0
    }
  }
}
layer {
  name: "a2b.path1.3x3.1.relu"
  type: "ReLU"
  bottom: "a2b.path1.3x3.1"
  top: "a2b.path1.3x3.1"
}
layer {
  name: "a2b.path1.3x3.2.conv"
  type: "Convolution"
  bottom: "a2b.path1.3x3.1"
  top: "a2b.path1.3x3.2.conv"
  param {
    lr_mult: 1.0
    decay_mult: 1.0
  }
  convolution_param {
    num_output: 384
    bias_term: false
    weight_filler {
      type: "xavier"
    }
    bias_filler {
      type: "constant"
      value: 0.0
    }
    pad_h: 0
    pad_w: 0
    kernel_h: 3
    kernel_w: 3
    stride_h: 2
    stride_w: 2
  }
}
layer {
  name: "a2b.path1.3x3.2.bn"
  type: "BN"
  bottom: "a2b.path1.3x3.2.conv"
  top: "a2b.path1.3x3.2"
  param {
    lr_mult: 1.0
    decay_mult: 0.0
  }
  param {
    lr_mult: 1.0
    decay_mult: 0.0
  }
  param {
    lr_mult: 0.0
    decay_mult: 0.0
  }
  param {
    lr_mult: 0.0
    decay_mult: 0.0
  }
  bn_param {
    sync_forward: false
    moving_average: true
    decay: 0.99
    scale_filler {
      type: "constant"
      value: 1.0
    }
    shift_filler {
      type: "constant"
      value: 0.0
    }
  }
}
layer {
  name: "a2b.path1.3x3.2.relu"
  type: "ReLU"
  bottom: "a2b.path1.3x3.2"
  top: "a2b.path1.3x3.2"
}
layer {
  name: "a2b.path2.3x3.conv"
  type: "Convolution"
  bottom: "a10"
  top: "a2b.path2.3x3.conv"
  param {
    lr_mult: 1.0
    decay_mult: 1.0
  }
  convolution_param {
    num_output: 384
    bias_term: false
    weight_filler {
      type: "xavier"
    }
    bias_filler {
      type: "constant"
      value: 0.0
    }
    pad_h: 0
    pad_w: 0
    kernel_h: 3
    kernel_w: 3
    stride_h: 2
    stride_w: 2
  }
}
layer {
  name: "a2b.path2.3x3.bn"
  type: "BN"
  bottom: "a2b.path2.3x3.conv"
  top: "a2b.path2.3x3"
  param {
    lr_mult: 1.0
    decay_mult: 0.0
  }
  param {
    lr_mult: 1.0
    decay_mult: 0.0
  }
  param {
    lr_mult: 0.0
    decay_mult: 0.0
  }
  param {
    lr_mult: 0.0
    decay_mult: 0.0
  }
  bn_param {
    sync_forward: false
    moving_average: true
    decay: 0.99
    scale_filler {
      type: "constant"
      value: 1.0
    }
    shift_filler {
      type: "constant"
      value: 0.0
    }
  }
}
layer {
  name: "a2b.path2.3x3.relu"
  type: "ReLU"
  bottom: "a2b.path2.3x3"
  top: "a2b.path2.3x3"
}
layer {
  name: "a2b.path3.max"
  type: "Pooling"
  bottom: "a10"
  top: "a2b.path3.max"
  pooling_param {
    pool: MAX
    kernel_h: 3
    kernel_w: 3
    stride_h: 2
    stride_w: 2
    pad_h: 0
    pad_w: 0
  }
}
layer {
  name: "a2b.concat"
  type: "Concat"
  bottom: "a2b.path1.3x3.2"
  bottom: "a2b.path2.3x3"
  bottom: "a2b.path3.max"
  top: "a2b"
}
layer {
  name: "b1.way1.poly1.path1.1x1.conv"
  type: "Convolution"
  bottom: "a2b"
  top: "b1.way1.poly1.path1.1x1.conv"
  param {
    lr_mult: 1.0
    decay_mult: 1.0
  }
  convolution_param {
    num_output: 128
    bias_term: false
    weight_filler {
      type: "xavier"
    }
    bias_filler {
      type: "constant"
      value: 0.0
    }
    pad_h: 0
    pad_w: 0
    kernel_h: 1
    kernel_w: 1
    stride_h: 1
    stride_w: 1
  }
}
layer {
  name: "b1.way1.poly1.path1.1x1.bn"
  type: "BN"
  bottom: "b1.way1.poly1.path1.1x1.conv"
  top: "b1.way1.poly1.path1.1x1"
  param {
    lr_mult: 1.0
    decay_mult: 0.0
  }
  param {
    lr_mult: 1.0
    decay_mult: 0.0
  }
  param {
    lr_mult: 0.0
    decay_mult: 0.0
  }
  param {
    lr_mult: 0.0
    decay_mult: 0.0
  }
  bn_param {
    sync_forward: false
    moving_average: true
    decay: 0.99
    scale_filler {
      type: "constant"
      value: 1.0
    }
    shift_filler {
      type: "constant"
      value: 0.0
    }
  }
}
layer {
  name: "b1.way1.poly1.path1.1x1.relu"
  type: "ReLU"
  bottom: "b1.way1.poly1.path1.1x1"
  top: "b1.way1.poly1.path1.1x1"
}
layer {
  name: "b1.way1.poly1.path1.7x1.conv"
  type: "Convolution"
  bottom: "b1.way1.poly1.path1.1x1"
  top: "b1.way1.poly1.path1.7x1.conv"
  param {
    lr_mult: 1.0
    decay_mult: 1.0
  }
  convolution_param {
    num_output: 160
    bias_term: false
    weight_filler {
      type: "xavier"
    }
    bias_filler {
      type: "constant"
      value: 0.0
    }
    pad_h: 0
    pad_w: 3
    kernel_h: 1
    kernel_w: 7
    stride_h: 1
    stride_w: 1
  }
}
layer {
  name: "b1.way1.poly1.path1.7x1.bn"
  type: "BN"
  bottom: "b1.way1.poly1.path1.7x1.conv"
  top: "b1.way1.poly1.path1.7x1"
  param {
    lr_mult: 1.0
    decay_mult: 0.0
  }
  param {
    lr_mult: 1.0
    decay_mult: 0.0
  }
  param {
    lr_mult: 0.0
    decay_mult: 0.0
  }
  param {
    lr_mult: 0.0
    decay_mult: 0.0
  }
  bn_param {
    sync_forward: false
    moving_average: true
    decay: 0.99
    scale_filler {
      type: "constant"
      value: 1.0
    }
    shift_filler {
      type: "constant"
      value: 0.0
    }
  }
}
layer {
  name: "b1.way1.poly1.path1.7x1.relu"
  type: "ReLU"
  bottom: "b1.way1.poly1.path1.7x1"
  top: "b1.way1.poly1.path1.7x1"
}
layer {
  name: "b1.way1.poly1.path1.1x7.conv"
  type: "Convolution"
  bottom: "b1.way1.poly1.path1.7x1"
  top: "b1.way1.poly1.path1.1x7.conv"
  param {
    lr_mult: 1.0
    decay_mult: 1.0
  }
  convolution_param {
    num_output: 192
    bias_term: false
    weight_filler {
      type: "xavier"
    }
    bias_filler {
      type: "constant"
      value: 0.0
    }
    pad_h: 3
    pad_w: 0
    kernel_h: 7
    kernel_w: 1
    stride_h: 1
    stride_w: 1
  }
}
layer {
  name: "b1.way1.poly1.path1.1x7.bn"
  type: "BN"
  bottom: "b1.way1.poly1.path1.1x7.conv"
  top: "b1.way1.poly1.path1.1x7"
  param {
    lr_mult: 1.0
    decay_mult: 0.0
  }
  param {
    lr_mult: 1.0
    decay_mult: 0.0
  }
  param {
    lr_mult: 0.0
    decay_mult: 0.0
  }
  param {
    lr_mult: 0.0
    decay_mult: 0.0
  }
  bn_param {
    sync_forward: false
    moving_average: true
    decay: 0.99
    scale_filler {
      type: "constant"
      value: 1.0
    }
    shift_filler {
      type: "constant"
      value: 0.0
    }
  }
}
layer {
  name: "b1.way1.poly1.path1.1x7.relu"
  type: "ReLU"
  bottom: "b1.way1.poly1.path1.1x7"
  top: "b1.way1.poly1.path1.1x7"
}
layer {
  name: "b1.way1.poly1.path2.1x1.conv"
  type: "Convolution"
  bottom: "a2b"
  top: "b1.way1.poly1.path2.1x1.conv"
  param {
    lr_mult: 1.0
    decay_mult: 1.0
  }
  convolution_param {
    num_output: 192
    bias_term: false
    weight_filler {
      type: "xavier"
    }
    bias_filler {
      type: "constant"
      value: 0.0
    }
    pad_h: 0
    pad_w: 0
    kernel_h: 1
    kernel_w: 1
    stride_h: 1
    stride_w: 1
  }
}
layer {
  name: "b1.way1.poly1.path2.1x1.bn"
  type: "BN"
  bottom: "b1.way1.poly1.path2.1x1.conv"
  top: "b1.way1.poly1.path2.1x1"
  param {
    lr_mult: 1.0
    decay_mult: 0.0
  }
  param {
    lr_mult: 1.0
    decay_mult: 0.0
  }
  param {
    lr_mult: 0.0
    decay_mult: 0.0
  }
  param {
    lr_mult: 0.0
    decay_mult: 0.0
  }
  bn_param {
    sync_forward: false
    moving_average: true
    decay: 0.99
    scale_filler {
      type: "constant"
      value: 1.0
    }
    shift_filler {
      type: "constant"
      value: 0.0
    }
  }
}
layer {
  name: "b1.way1.poly1.path2.1x1.relu"
  type: "ReLU"
  bottom: "b1.way1.poly1.path2.1x1"
  top: "b1.way1.poly1.path2.1x1"
}
layer {
  name: "b1.way1.poly1.concat"
  type: "Concat"
  bottom: "b1.way1.poly1.path1.1x7"
  bottom: "b1.way1.poly1.path2.1x1"
  top: "b1.way1.poly1.concat"
}
layer {
  name: "b1.way1.poly1.1x1.conv"
  type: "Convolution"
  bottom: "b1.way1.poly1.concat"
  top: "b1.way1.poly1.1x1.conv"
  param {
    lr_mult: 1.0
    decay_mult: 1.0
  }
  convolution_param {
    num_output: 1152
    bias_term: false
    weight_filler {
      type: "xavier"
    }
    bias_filler {
      type: "constant"
      value: 0.0
    }
    pad_h: 0
    pad_w: 0
    kernel_h: 1
    kernel_w: 1
    stride_h: 1
    stride_w: 1
  }
}
layer {
  name: "b1.way1.poly1.1x1.bn"
  type: "BN"
  bottom: "b1.way1.poly1.1x1.conv"
  top: "b1.way1.poly1"
  param {
    lr_mult: 1.0
    decay_mult: 0.0
  }
  param {
    lr_mult: 1.0
    decay_mult: 0.0
  }
  param {
    lr_mult: 0.0
    decay_mult: 0.0
  }
  param {
    lr_mult: 0.0
    decay_mult: 0.0
  }
  bn_param {
    sync_forward: false
    moving_average: true
    decay: 0.99
    scale_filler {
      type: "constant"
      value: 1.0
    }
    shift_filler {
      type: "constant"
      value: 0.0
    }
  }
}
layer {
  name: "b1.elt"
  type: "Eltwise"
  bottom: "a2b"
  bottom: "b1.way1.poly1"
  top: "b1"
  eltwise_param {
    operation: SUM
    coeff: 1
    coeff: 0.3
  }
}
layer {
  name: "b1.relu"
  type: "ReLU"
  bottom: "b1"
  top: "b1"
}
layer {
  name: "b2.way1.poly1.path1.1x1.conv"
  type: "Convolution"
  bottom: "b1"
  top: "b2.way1.poly1.path1.1x1.conv"
  param {
    lr_mult: 1.0
    decay_mult: 1.0
  }
  convolution_param {
    num_output: 128
    bias_term: false
    weight_filler {
      type: "xavier"
    }
    bias_filler {
      type: "constant"
      value: 0.0
    }
    pad_h: 0
    pad_w: 0
    kernel_h: 1
    kernel_w: 1
    stride_h: 1
    stride_w: 1
  }
}
layer {
  name: "b2.way1.poly1.path1.1x1.bn"
  type: "BN"
  bottom: "b2.way1.poly1.path1.1x1.conv"
  top: "b2.way1.poly1.path1.1x1"
  param {
    lr_mult: 1.0
    decay_mult: 0.0
  }
  param {
    lr_mult: 1.0
    decay_mult: 0.0
  }
  param {
    lr_mult: 0.0
    decay_mult: 0.0
  }
  param {
    lr_mult: 0.0
    decay_mult: 0.0
  }
  bn_param {
    sync_forward: false
    moving_average: true
    decay: 0.99
    scale_filler {
      type: "constant"
      value: 1.0
    }
    shift_filler {
      type: "constant"
      value: 0.0
    }
  }
}
layer {
  name: "b2.way1.poly1.path1.1x1.relu"
  type: "ReLU"
  bottom: "b2.way1.poly1.path1.1x1"
  top: "b2.way1.poly1.path1.1x1"
}
layer {
  name: "b2.way1.poly1.path1.7x1.conv"
  type: "Convolution"
  bottom: "b2.way1.poly1.path1.1x1"
  top: "b2.way1.poly1.path1.7x1.conv"
  param {
    lr_mult: 1.0
    decay_mult: 1.0
  }
  convolution_param {
    num_output: 160
    bias_term: false
    weight_filler {
      type: "xavier"
    }
    bias_filler {
      type: "constant"
      value: 0.0
    }
    pad_h: 0
    pad_w: 3
    kernel_h: 1
    kernel_w: 7
    stride_h: 1
    stride_w: 1
  }
}
layer {
  name: "b2.way1.poly1.path1.7x1.bn"
  type: "BN"
  bottom: "b2.way1.poly1.path1.7x1.conv"
  top: "b2.way1.poly1.path1.7x1"
  param {
    lr_mult: 1.0
    decay_mult: 0.0
  }
  param {
    lr_mult: 1.0
    decay_mult: 0.0
  }
  param {
    lr_mult: 0.0
    decay_mult: 0.0
  }
  param {
    lr_mult: 0.0
    decay_mult: 0.0
  }
  bn_param {
    sync_forward: false
    moving_average: true
    decay: 0.99
    scale_filler {
      type: "constant"
      value: 1.0
    }
    shift_filler {
      type: "constant"
      value: 0.0
    }
  }
}
layer {
  name: "b2.way1.poly1.path1.7x1.relu"
  type: "ReLU"
  bottom: "b2.way1.poly1.path1.7x1"
  top: "b2.way1.poly1.path1.7x1"
}
layer {
  name: "b2.way1.poly1.path1.1x7.conv"
  type: "Convolution"
  bottom: "b2.way1.poly1.path1.7x1"
  top: "b2.way1.poly1.path1.1x7.conv"
  param {
    lr_mult: 1.0
    decay_mult: 1.0
  }
  convolution_param {
    num_output: 192
    bias_term: false
    weight_filler {
      type: "xavier"
    }
    bias_filler {
      type: "constant"
      value: 0.0
    }
    pad_h: 3
    pad_w: 0
    kernel_h: 7
    kernel_w: 1
    stride_h: 1
    stride_w: 1
  }
}
layer {
  name: "b2.way1.poly1.path1.1x7.bn"
  type: "BN"
  bottom: "b2.way1.poly1.path1.1x7.conv"
  top: "b2.way1.poly1.path1.1x7"
  param {
    lr_mult: 1.0
    decay_mult: 0.0
  }
  param {
    lr_mult: 1.0
    decay_mult: 0.0
  }
  param {
    lr_mult: 0.0
    decay_mult: 0.0
  }
  param {
    lr_mult: 0.0
    decay_mult: 0.0
  }
  bn_param {
    sync_forward: false
    moving_average: true
    decay: 0.99
    scale_filler {
      type: "constant"
      value: 1.0
    }
    shift_filler {
      type: "constant"
      value: 0.0
    }
  }
}
layer {
  name: "b2.way1.poly1.path1.1x7.relu"
  type: "ReLU"
  bottom: "b2.way1.poly1.path1.1x7"
  top: "b2.way1.poly1.path1.1x7"
}
layer {
  name: "b2.way1.poly1.path2.1x1.conv"
  type: "Convolution"
  bottom: "b1"
  top: "b2.way1.poly1.path2.1x1.conv"
  param {
    lr_mult: 1.0
    decay_mult: 1.0
  }
  convolution_param {
    num_output: 192
    bias_term: false
    weight_filler {
      type: "xavier"
    }
    bias_filler {
      type: "constant"
      value: 0.0
    }
    pad_h: 0
    pad_w: 0
    kernel_h: 1
    kernel_w: 1
    stride_h: 1
    stride_w: 1
  }
}
layer {
  name: "b2.way1.poly1.path2.1x1.bn"
  type: "BN"
  bottom: "b2.way1.poly1.path2.1x1.conv"
  top: "b2.way1.poly1.path2.1x1"
  param {
    lr_mult: 1.0
    decay_mult: 0.0
  }
  param {
    lr_mult: 1.0
    decay_mult: 0.0
  }
  param {
    lr_mult: 0.0
    decay_mult: 0.0
  }
  param {
    lr_mult: 0.0
    decay_mult: 0.0
  }
  bn_param {
    sync_forward: false
    moving_average: true
    decay: 0.99
    scale_filler {
      type: "constant"
      value: 1.0
    }
    shift_filler {
      type: "constant"
      value: 0.0
    }
  }
}
layer {
  name: "b2.way1.poly1.path2.1x1.relu"
  type: "ReLU"
  bottom: "b2.way1.poly1.path2.1x1"
  top: "b2.way1.poly1.path2.1x1"
}
layer {
  name: "b2.way1.poly1.concat"
  type: "Concat"
  bottom: "b2.way1.poly1.path1.1x7"
  bottom: "b2.way1.poly1.path2.1x1"
  top: "b2.way1.poly1.concat"
}
layer {
  name: "b2.way1.poly1.1x1.conv"
  type: "Convolution"
  bottom: "b2.way1.poly1.concat"
  top: "b2.way1.poly1.1x1.conv"
  param {
    lr_mult: 1.0
    decay_mult: 1.0
  }
  convolution_param {
    num_output: 1152
    bias_term: false
    weight_filler {
      type: "xavier"
    }
    bias_filler {
      type: "constant"
      value: 0.0
    }
    pad_h: 0
    pad_w: 0
    kernel_h: 1
    kernel_w: 1
    stride_h: 1
    stride_w: 1
  }
}
layer {
  name: "b2.way1.poly1.1x1.bn"
  type: "BN"
  bottom: "b2.way1.poly1.1x1.conv"
  top: "b2.way1.poly1"
  param {
    lr_mult: 1.0
    decay_mult: 0.0
  }
  param {
    lr_mult: 1.0
    decay_mult: 0.0
  }
  param {
    lr_mult: 0.0
    decay_mult: 0.0
  }
  param {
    lr_mult: 0.0
    decay_mult: 0.0
  }
  bn_param {
    sync_forward: false
    moving_average: true
    decay: 0.99
    scale_filler {
      type: "constant"
      value: 1.0
    }
    shift_filler {
      type: "constant"
      value: 0.0
    }
  }
}
layer {
  name: "b2.elt"
  type: "Eltwise"
  bottom: "b1"
  bottom: "b2.way1.poly1"
  top: "b2"
  eltwise_param {
    operation: SUM
    coeff: 1
    coeff: 0.3
  }
}
layer {
  name: "b2.relu"
  type: "ReLU"
  bottom: "b2"
  top: "b2"
}
layer {
  name: "b3.way1.poly1.path1.1x1.conv"
  type: "Convolution"
  bottom: "b2"
  top: "b3.way1.poly1.path1.1x1.conv"
  param {
    lr_mult: 1.0
    decay_mult: 1.0
  }
  convolution_param {
    num_output: 128
    bias_term: false
    weight_filler {
      type: "xavier"
    }
    bias_filler {
      type: "constant"
      value: 0.0
    }
    pad_h: 0
    pad_w: 0
    kernel_h: 1
    kernel_w: 1
    stride_h: 1
    stride_w: 1
  }
}
layer {
  name: "b3.way1.poly1.path1.1x1.bn"
  type: "BN"
  bottom: "b3.way1.poly1.path1.1x1.conv"
  top: "b3.way1.poly1.path1.1x1"
  param {
    lr_mult: 1.0
    decay_mult: 0.0
  }
  param {
    lr_mult: 1.0
    decay_mult: 0.0
  }
  param {
    lr_mult: 0.0
    decay_mult: 0.0
  }
  param {
    lr_mult: 0.0
    decay_mult: 0.0
  }
  bn_param {
    sync_forward: false
    moving_average: true
    decay: 0.99
    scale_filler {
      type: "constant"
      value: 1.0
    }
    shift_filler {
      type: "constant"
      value: 0.0
    }
  }
}
layer {
  name: "b3.way1.poly1.path1.1x1.relu"
  type: "ReLU"
  bottom: "b3.way1.poly1.path1.1x1"
  top: "b3.way1.poly1.path1.1x1"
}
layer {
  name: "b3.way1.poly1.path1.7x1.conv"
  type: "Convolution"
  bottom: "b3.way1.poly1.path1.1x1"
  top: "b3.way1.poly1.path1.7x1.conv"
  param {
    lr_mult: 1.0
    decay_mult: 1.0
  }
  convolution_param {
    num_output: 160
    bias_term: false
    weight_filler {
      type: "xavier"
    }
    bias_filler {
      type: "constant"
      value: 0.0
    }
    pad_h: 0
    pad_w: 3
    kernel_h: 1
    kernel_w: 7
    stride_h: 1
    stride_w: 1
  }
}
layer {
  name: "b3.way1.poly1.path1.7x1.bn"
  type: "BN"
  bottom: "b3.way1.poly1.path1.7x1.conv"
  top: "b3.way1.poly1.path1.7x1"
  param {
    lr_mult: 1.0
    decay_mult: 0.0
  }
  param {
    lr_mult: 1.0
    decay_mult: 0.0
  }
  param {
    lr_mult: 0.0
    decay_mult: 0.0
  }
  param {
    lr_mult: 0.0
    decay_mult: 0.0
  }
  bn_param {
    sync_forward: false
    moving_average: true
    decay: 0.99
    scale_filler {
      type: "constant"
      value: 1.0
    }
    shift_filler {
      type: "constant"
      value: 0.0
    }
  }
}
layer {
  name: "b3.way1.poly1.path1.7x1.relu"
  type: "ReLU"
  bottom: "b3.way1.poly1.path1.7x1"
  top: "b3.way1.poly1.path1.7x1"
}
layer {
  name: "b3.way1.poly1.path1.1x7.conv"
  type: "Convolution"
  bottom: "b3.way1.poly1.path1.7x1"
  top: "b3.way1.poly1.path1.1x7.conv"
  param {
    lr_mult: 1.0
    decay_mult: 1.0
  }
  convolution_param {
    num_output: 192
    bias_term: false
    weight_filler {
      type: "xavier"
    }
    bias_filler {
      type: "constant"
      value: 0.0
    }
    pad_h: 3
    pad_w: 0
    kernel_h: 7
    kernel_w: 1
    stride_h: 1
    stride_w: 1
  }
}
layer {
  name: "b3.way1.poly1.path1.1x7.bn"
  type: "BN"
  bottom: "b3.way1.poly1.path1.1x7.conv"
  top: "b3.way1.poly1.path1.1x7"
  param {
    lr_mult: 1.0
    decay_mult: 0.0
  }
  param {
    lr_mult: 1.0
    decay_mult: 0.0
  }
  param {
    lr_mult: 0.0
    decay_mult: 0.0
  }
  param {
    lr_mult: 0.0
    decay_mult: 0.0
  }
  bn_param {
    sync_forward: false
    moving_average: true
    decay: 0.99
    scale_filler {
      type: "constant"
      value: 1.0
    }
    shift_filler {
      type: "constant"
      value: 0.0
    }
  }
}
layer {
  name: "b3.way1.poly1.path1.1x7.relu"
  type: "ReLU"
  bottom: "b3.way1.poly1.path1.1x7"
  top: "b3.way1.poly1.path1.1x7"
}
layer {
  name: "b3.way1.poly1.path2.1x1.conv"
  type: "Convolution"
  bottom: "b2"
  top: "b3.way1.poly1.path2.1x1.conv"
  param {
    lr_mult: 1.0
    decay_mult: 1.0
  }
  convolution_param {
    num_output: 192
    bias_term: false
    weight_filler {
      type: "xavier"
    }
    bias_filler {
      type: "constant"
      value: 0.0
    }
    pad_h: 0
    pad_w: 0
    kernel_h: 1
    kernel_w: 1
    stride_h: 1
    stride_w: 1
  }
}
layer {
  name: "b3.way1.poly1.path2.1x1.bn"
  type: "BN"
  bottom: "b3.way1.poly1.path2.1x1.conv"
  top: "b3.way1.poly1.path2.1x1"
  param {
    lr_mult: 1.0
    decay_mult: 0.0
  }
  param {
    lr_mult: 1.0
    decay_mult: 0.0
  }
  param {
    lr_mult: 0.0
    decay_mult: 0.0
  }
  param {
    lr_mult: 0.0
    decay_mult: 0.0
  }
  bn_param {
    sync_forward: false
    moving_average: true
    decay: 0.99
    scale_filler {
      type: "constant"
      value: 1.0
    }
    shift_filler {
      type: "constant"
      value: 0.0
    }
  }
}
layer {
  name: "b3.way1.poly1.path2.1x1.relu"
  type: "ReLU"
  bottom: "b3.way1.poly1.path2.1x1"
  top: "b3.way1.poly1.path2.1x1"
}
layer {
  name: "b3.way1.poly1.concat"
  type: "Concat"
  bottom: "b3.way1.poly1.path1.1x7"
  bottom: "b3.way1.poly1.path2.1x1"
  top: "b3.way1.poly1.concat"
}
layer {
  name: "b3.way1.poly1.1x1.conv"
  type: "Convolution"
  bottom: "b3.way1.poly1.concat"
  top: "b3.way1.poly1.1x1.conv"
  param {
    lr_mult: 1.0
    decay_mult: 1.0
  }
  convolution_param {
    num_output: 1152
    bias_term: false
    weight_filler {
      type: "xavier"
    }
    bias_filler {
      type: "constant"
      value: 0.0
    }
    pad_h: 0
    pad_w: 0
    kernel_h: 1
    kernel_w: 1
    stride_h: 1
    stride_w: 1
  }
}
layer {
  name: "b3.way1.poly1.1x1.bn"
  type: "BN"
  bottom: "b3.way1.poly1.1x1.conv"
  top: "b3.way1.poly1"
  param {
    lr_mult: 1.0
    decay_mult: 0.0
  }
  param {
    lr_mult: 1.0
    decay_mult: 0.0
  }
  param {
    lr_mult: 0.0
    decay_mult: 0.0
  }
  param {
    lr_mult: 0.0
    decay_mult: 0.0
  }
  bn_param {
    sync_forward: false
    moving_average: true
    decay: 0.99
    scale_filler {
      type: "constant"
      value: 1.0
    }
    shift_filler {
      type: "constant"
      value: 0.0
    }
  }
}
layer {
  name: "b3.elt"
  type: "Eltwise"
  bottom: "b2"
  bottom: "b3.way1.poly1"
  top: "b3"
  eltwise_param {
    operation: SUM
    coeff: 1
    coeff: 0.3
  }
}
layer {
  name: "b3.relu"
  type: "ReLU"
  bottom: "b3"
  top: "b3"
}
layer {
  name: "b4.way1.poly1.path1.1x1.conv"
  type: "Convolution"
  bottom: "b3"
  top: "b4.way1.poly1.path1.1x1.conv"
  param {
    lr_mult: 1.0
    decay_mult: 1.0
  }
  convolution_param {
    num_output: 128
    bias_term: false
    weight_filler {
      type: "xavier"
    }
    bias_filler {
      type: "constant"
      value: 0.0
    }
    pad_h: 0
    pad_w: 0
    kernel_h: 1
    kernel_w: 1
    stride_h: 1
    stride_w: 1
  }
}
layer {
  name: "b4.way1.poly1.path1.1x1.bn"
  type: "BN"
  bottom: "b4.way1.poly1.path1.1x1.conv"
  top: "b4.way1.poly1.path1.1x1"
  param {
    lr_mult: 1.0
    decay_mult: 0.0
  }
  param {
    lr_mult: 1.0
    decay_mult: 0.0
  }
  param {
    lr_mult: 0.0
    decay_mult: 0.0
  }
  param {
    lr_mult: 0.0
    decay_mult: 0.0
  }
  bn_param {
    sync_forward: false
    moving_average: true
    decay: 0.99
    scale_filler {
      type: "constant"
      value: 1.0
    }
    shift_filler {
      type: "constant"
      value: 0.0
    }
  }
}
layer {
  name: "b4.way1.poly1.path1.1x1.relu"
  type: "ReLU"
  bottom: "b4.way1.poly1.path1.1x1"
  top: "b4.way1.poly1.path1.1x1"
}
layer {
  name: "b4.way1.poly1.path1.7x1.conv"
  type: "Convolution"
  bottom: "b4.way1.poly1.path1.1x1"
  top: "b4.way1.poly1.path1.7x1.conv"
  param {
    lr_mult: 1.0
    decay_mult: 1.0
  }
  convolution_param {
    num_output: 160
    bias_term: false
    weight_filler {
      type: "xavier"
    }
    bias_filler {
      type: "constant"
      value: 0.0
    }
    pad_h: 0
    pad_w: 3
    kernel_h: 1
    kernel_w: 7
    stride_h: 1
    stride_w: 1
  }
}
layer {
  name: "b4.way1.poly1.path1.7x1.bn"
  type: "BN"
  bottom: "b4.way1.poly1.path1.7x1.conv"
  top: "b4.way1.poly1.path1.7x1"
  param {
    lr_mult: 1.0
    decay_mult: 0.0
  }
  param {
    lr_mult: 1.0
    decay_mult: 0.0
  }
  param {
    lr_mult: 0.0
    decay_mult: 0.0
  }
  param {
    lr_mult: 0.0
    decay_mult: 0.0
  }
  bn_param {
    sync_forward: false
    moving_average: true
    decay: 0.99
    scale_filler {
      type: "constant"
      value: 1.0
    }
    shift_filler {
      type: "constant"
      value: 0.0
    }
  }
}
layer {
  name: "b4.way1.poly1.path1.7x1.relu"
  type: "ReLU"
  bottom: "b4.way1.poly1.path1.7x1"
  top: "b4.way1.poly1.path1.7x1"
}
layer {
  name: "b4.way1.poly1.path1.1x7.conv"
  type: "Convolution"
  bottom: "b4.way1.poly1.path1.7x1"
  top: "b4.way1.poly1.path1.1x7.conv"
  param {
    lr_mult: 1.0
    decay_mult: 1.0
  }
  convolution_param {
    num_output: 192
    bias_term: false
    weight_filler {
      type: "xavier"
    }
    bias_filler {
      type: "constant"
      value: 0.0
    }
    pad_h: 3
    pad_w: 0
    kernel_h: 7
    kernel_w: 1
    stride_h: 1
    stride_w: 1
  }
}
layer {
  name: "b4.way1.poly1.path1.1x7.bn"
  type: "BN"
  bottom: "b4.way1.poly1.path1.1x7.conv"
  top: "b4.way1.poly1.path1.1x7"
  param {
    lr_mult: 1.0
    decay_mult: 0.0
  }
  param {
    lr_mult: 1.0
    decay_mult: 0.0
  }
  param {
    lr_mult: 0.0
    decay_mult: 0.0
  }
  param {
    lr_mult: 0.0
    decay_mult: 0.0
  }
  bn_param {
    sync_forward: false
    moving_average: true
    decay: 0.99
    scale_filler {
      type: "constant"
      value: 1.0
    }
    shift_filler {
      type: "constant"
      value: 0.0
    }
  }
}
layer {
  name: "b4.way1.poly1.path1.1x7.relu"
  type: "ReLU"
  bottom: "b4.way1.poly1.path1.1x7"
  top: "b4.way1.poly1.path1.1x7"
}
layer {
  name: "b4.way1.poly1.path2.1x1.conv"
  type: "Convolution"
  bottom: "b3"
  top: "b4.way1.poly1.path2.1x1.conv"
  param {
    lr_mult: 1.0
    decay_mult: 1.0
  }
  convolution_param {
    num_output: 192
    bias_term: false
    weight_filler {
      type: "xavier"
    }
    bias_filler {
      type: "constant"
      value: 0.0
    }
    pad_h: 0
    pad_w: 0
    kernel_h: 1
    kernel_w: 1
    stride_h: 1
    stride_w: 1
  }
}
layer {
  name: "b4.way1.poly1.path2.1x1.bn"
  type: "BN"
  bottom: "b4.way1.poly1.path2.1x1.conv"
  top: "b4.way1.poly1.path2.1x1"
  param {
    lr_mult: 1.0
    decay_mult: 0.0
  }
  param {
    lr_mult: 1.0
    decay_mult: 0.0
  }
  param {
    lr_mult: 0.0
    decay_mult: 0.0
  }
  param {
    lr_mult: 0.0
    decay_mult: 0.0
  }
  bn_param {
    sync_forward: false
    moving_average: true
    decay: 0.99
    scale_filler {
      type: "constant"
      value: 1.0
    }
    shift_filler {
      type: "constant"
      value: 0.0
    }
  }
}
layer {
  name: "b4.way1.poly1.path2.1x1.relu"
  type: "ReLU"
  bottom: "b4.way1.poly1.path2.1x1"
  top: "b4.way1.poly1.path2.1x1"
}
layer {
  name: "b4.way1.poly1.concat"
  type: "Concat"
  bottom: "b4.way1.poly1.path1.1x7"
  bottom: "b4.way1.poly1.path2.1x1"
  top: "b4.way1.poly1.concat"
}
layer {
  name: "b4.way1.poly1.1x1.conv"
  type: "Convolution"
  bottom: "b4.way1.poly1.concat"
  top: "b4.way1.poly1.1x1.conv"
  param {
    lr_mult: 1.0
    decay_mult: 1.0
  }
  convolution_param {
    num_output: 1152
    bias_term: false
    weight_filler {
      type: "xavier"
    }
    bias_filler {
      type: "constant"
      value: 0.0
    }
    pad_h: 0
    pad_w: 0
    kernel_h: 1
    kernel_w: 1
    stride_h: 1
    stride_w: 1
  }
}
layer {
  name: "b4.way1.poly1.1x1.bn"
  type: "BN"
  bottom: "b4.way1.poly1.1x1.conv"
  top: "b4.way1.poly1"
  param {
    lr_mult: 1.0
    decay_mult: 0.0
  }
  param {
    lr_mult: 1.0
    decay_mult: 0.0
  }
  param {
    lr_mult: 0.0
    decay_mult: 0.0
  }
  param {
    lr_mult: 0.0
    decay_mult: 0.0
  }
  bn_param {
    sync_forward: false
    moving_average: true
    decay: 0.99
    scale_filler {
      type: "constant"
      value: 1.0
    }
    shift_filler {
      type: "constant"
      value: 0.0
    }
  }
}
layer {
  name: "b4.elt"
  type: "Eltwise"
  bottom: "b3"
  bottom: "b4.way1.poly1"
  top: "b4"
  eltwise_param {
    operation: SUM
    coeff: 1
    coeff: 0.3
  }
}
layer {
  name: "b4.relu"
  type: "ReLU"
  bottom: "b4"
  top: "b4"
}
layer {
  name: "b5.way1.poly1.path1.1x1.conv"
  type: "Convolution"
  bottom: "b4"
  top: "b5.way1.poly1.path1.1x1.conv"
  param {
    lr_mult: 1.0
    decay_mult: 1.0
  }
  convolution_param {
    num_output: 128
    bias_term: false
    weight_filler {
      type: "xavier"
    }
    bias_filler {
      type: "constant"
      value: 0.0
    }
    pad_h: 0
    pad_w: 0
    kernel_h: 1
    kernel_w: 1
    stride_h: 1
    stride_w: 1
  }
}
layer {
  name: "b5.way1.poly1.path1.1x1.bn"
  type: "BN"
  bottom: "b5.way1.poly1.path1.1x1.conv"
  top: "b5.way1.poly1.path1.1x1"
  param {
    lr_mult: 1.0
    decay_mult: 0.0
  }
  param {
    lr_mult: 1.0
    decay_mult: 0.0
  }
  param {
    lr_mult: 0.0
    decay_mult: 0.0
  }
  param {
    lr_mult: 0.0
    decay_mult: 0.0
  }
  bn_param {
    sync_forward: false
    moving_average: true
    decay: 0.99
    scale_filler {
      type: "constant"
      value: 1.0
    }
    shift_filler {
      type: "constant"
      value: 0.0
    }
  }
}
layer {
  name: "b5.way1.poly1.path1.1x1.relu"
  type: "ReLU"
  bottom: "b5.way1.poly1.path1.1x1"
  top: "b5.way1.poly1.path1.1x1"
}
layer {
  name: "b5.way1.poly1.path1.7x1.conv"
  type: "Convolution"
  bottom: "b5.way1.poly1.path1.1x1"
  top: "b5.way1.poly1.path1.7x1.conv"
  param {
    lr_mult: 1.0
    decay_mult: 1.0
  }
  convolution_param {
    num_output: 160
    bias_term: false
    weight_filler {
      type: "xavier"
    }
    bias_filler {
      type: "constant"
      value: 0.0
    }
    pad_h: 0
    pad_w: 3
    kernel_h: 1
    kernel_w: 7
    stride_h: 1
    stride_w: 1
  }
}
layer {
  name: "b5.way1.poly1.path1.7x1.bn"
  type: "BN"
  bottom: "b5.way1.poly1.path1.7x1.conv"
  top: "b5.way1.poly1.path1.7x1"
  param {
    lr_mult: 1.0
    decay_mult: 0.0
  }
  param {
    lr_mult: 1.0
    decay_mult: 0.0
  }
  param {
    lr_mult: 0.0
    decay_mult: 0.0
  }
  param {
    lr_mult: 0.0
    decay_mult: 0.0
  }
  bn_param {
    sync_forward: false
    moving_average: true
    decay: 0.99
    scale_filler {
      type: "constant"
      value: 1.0
    }
    shift_filler {
      type: "constant"
      value: 0.0
    }
  }
}
layer {
  name: "b5.way1.poly1.path1.7x1.relu"
  type: "ReLU"
  bottom: "b5.way1.poly1.path1.7x1"
  top: "b5.way1.poly1.path1.7x1"
}
layer {
  name: "b5.way1.poly1.path1.1x7.conv"
  type: "Convolution"
  bottom: "b5.way1.poly1.path1.7x1"
  top: "b5.way1.poly1.path1.1x7.conv"
  param {
    lr_mult: 1.0
    decay_mult: 1.0
  }
  convolution_param {
    num_output: 192
    bias_term: false
    weight_filler {
      type: "xavier"
    }
    bias_filler {
      type: "constant"
      value: 0.0
    }
    pad_h: 3
    pad_w: 0
    kernel_h: 7
    kernel_w: 1
    stride_h: 1
    stride_w: 1
  }
}
layer {
  name: "b5.way1.poly1.path1.1x7.bn"
  type: "BN"
  bottom: "b5.way1.poly1.path1.1x7.conv"
  top: "b5.way1.poly1.path1.1x7"
  param {
    lr_mult: 1.0
    decay_mult: 0.0
  }
  param {
    lr_mult: 1.0
    decay_mult: 0.0
  }
  param {
    lr_mult: 0.0
    decay_mult: 0.0
  }
  param {
    lr_mult: 0.0
    decay_mult: 0.0
  }
  bn_param {
    sync_forward: false
    moving_average: true
    decay: 0.99
    scale_filler {
      type: "constant"
      value: 1.0
    }
    shift_filler {
      type: "constant"
      value: 0.0
    }
  }
}
layer {
  name: "b5.way1.poly1.path1.1x7.relu"
  type: "ReLU"
  bottom: "b5.way1.poly1.path1.1x7"
  top: "b5.way1.poly1.path1.1x7"
}
layer {
  name: "b5.way1.poly1.path2.1x1.conv"
  type: "Convolution"
  bottom: "b4"
  top: "b5.way1.poly1.path2.1x1.conv"
  param {
    lr_mult: 1.0
    decay_mult: 1.0
  }
  convolution_param {
    num_output: 192
    bias_term: false
    weight_filler {
      type: "xavier"
    }
    bias_filler {
      type: "constant"
      value: 0.0
    }
    pad_h: 0
    pad_w: 0
    kernel_h: 1
    kernel_w: 1
    stride_h: 1
    stride_w: 1
  }
}
layer {
  name: "b5.way1.poly1.path2.1x1.bn"
  type: "BN"
  bottom: "b5.way1.poly1.path2.1x1.conv"
  top: "b5.way1.poly1.path2.1x1"
  param {
    lr_mult: 1.0
    decay_mult: 0.0
  }
  param {
    lr_mult: 1.0
    decay_mult: 0.0
  }
  param {
    lr_mult: 0.0
    decay_mult: 0.0
  }
  param {
    lr_mult: 0.0
    decay_mult: 0.0
  }
  bn_param {
    sync_forward: false
    moving_average: true
    decay: 0.99
    scale_filler {
      type: "constant"
      value: 1.0
    }
    shift_filler {
      type: "constant"
      value: 0.0
    }
  }
}
layer {
  name: "b5.way1.poly1.path2.1x1.relu"
  type: "ReLU"
  bottom: "b5.way1.poly1.path2.1x1"
  top: "b5.way1.poly1.path2.1x1"
}
layer {
  name: "b5.way1.poly1.concat"
  type: "Concat"
  bottom: "b5.way1.poly1.path1.1x7"
  bottom: "b5.way1.poly1.path2.1x1"
  top: "b5.way1.poly1.concat"
}
layer {
  name: "b5.way1.poly1.1x1.conv"
  type: "Convolution"
  bottom: "b5.way1.poly1.concat"
  top: "b5.way1.poly1.1x1.conv"
  param {
    lr_mult: 1.0
    decay_mult: 1.0
  }
  convolution_param {
    num_output: 1152
    bias_term: false
    weight_filler {
      type: "xavier"
    }
    bias_filler {
      type: "constant"
      value: 0.0
    }
    pad_h: 0
    pad_w: 0
    kernel_h: 1
    kernel_w: 1
    stride_h: 1
    stride_w: 1
  }
}
layer {
  name: "b5.way1.poly1.1x1.bn"
  type: "BN"
  bottom: "b5.way1.poly1.1x1.conv"
  top: "b5.way1.poly1"
  param {
    lr_mult: 1.0
    decay_mult: 0.0
  }
  param {
    lr_mult: 1.0
    decay_mult: 0.0
  }
  param {
    lr_mult: 0.0
    decay_mult: 0.0
  }
  param {
    lr_mult: 0.0
    decay_mult: 0.0
  }
  bn_param {
    sync_forward: false
    moving_average: true
    decay: 0.99
    scale_filler {
      type: "constant"
      value: 1.0
    }
    shift_filler {
      type: "constant"
      value: 0.0
    }
  }
}
layer {
  name: "b5.elt"
  type: "Eltwise"
  bottom: "b4"
  bottom: "b5.way1.poly1"
  top: "b5"
  eltwise_param {
    operation: SUM
    coeff: 1
    coeff: 0.3
  }
}
layer {
  name: "b5.relu"
  type: "ReLU"
  bottom: "b5"
  top: "b5"
}
layer {
  name: "b6.way1.poly1.path1.1x1.conv"
  type: "Convolution"
  bottom: "b5"
  top: "b6.way1.poly1.path1.1x1.conv"
  param {
    lr_mult: 1.0
    decay_mult: 1.0
  }
  convolution_param {
    num_output: 128
    bias_term: false
    weight_filler {
      type: "xavier"
    }
    bias_filler {
      type: "constant"
      value: 0.0
    }
    pad_h: 0
    pad_w: 0
    kernel_h: 1
    kernel_w: 1
    stride_h: 1
    stride_w: 1
  }
}
layer {
  name: "b6.way1.poly1.path1.1x1.bn"
  type: "BN"
  bottom: "b6.way1.poly1.path1.1x1.conv"
  top: "b6.way1.poly1.path1.1x1"
  param {
    lr_mult: 1.0
    decay_mult: 0.0
  }
  param {
    lr_mult: 1.0
    decay_mult: 0.0
  }
  param {
    lr_mult: 0.0
    decay_mult: 0.0
  }
  param {
    lr_mult: 0.0
    decay_mult: 0.0
  }
  bn_param {
    sync_forward: false
    moving_average: true
    decay: 0.99
    scale_filler {
      type: "constant"
      value: 1.0
    }
    shift_filler {
      type: "constant"
      value: 0.0
    }
  }
}
layer {
  name: "b6.way1.poly1.path1.1x1.relu"
  type: "ReLU"
  bottom: "b6.way1.poly1.path1.1x1"
  top: "b6.way1.poly1.path1.1x1"
}
layer {
  name: "b6.way1.poly1.path1.7x1.conv"
  type: "Convolution"
  bottom: "b6.way1.poly1.path1.1x1"
  top: "b6.way1.poly1.path1.7x1.conv"
  param {
    lr_mult: 1.0
    decay_mult: 1.0
  }
  convolution_param {
    num_output: 160
    bias_term: false
    weight_filler {
      type: "xavier"
    }
    bias_filler {
      type: "constant"
      value: 0.0
    }
    pad_h: 0
    pad_w: 3
    kernel_h: 1
    kernel_w: 7
    stride_h: 1
    stride_w: 1
  }
}
layer {
  name: "b6.way1.poly1.path1.7x1.bn"
  type: "BN"
  bottom: "b6.way1.poly1.path1.7x1.conv"
  top: "b6.way1.poly1.path1.7x1"
  param {
    lr_mult: 1.0
    decay_mult: 0.0
  }
  param {
    lr_mult: 1.0
    decay_mult: 0.0
  }
  param {
    lr_mult: 0.0
    decay_mult: 0.0
  }
  param {
    lr_mult: 0.0
    decay_mult: 0.0
  }
  bn_param {
    sync_forward: false
    moving_average: true
    decay: 0.99
    scale_filler {
      type: "constant"
      value: 1.0
    }
    shift_filler {
      type: "constant"
      value: 0.0
    }
  }
}
layer {
  name: "b6.way1.poly1.path1.7x1.relu"
  type: "ReLU"
  bottom: "b6.way1.poly1.path1.7x1"
  top: "b6.way1.poly1.path1.7x1"
}
layer {
  name: "b6.way1.poly1.path1.1x7.conv"
  type: "Convolution"
  bottom: "b6.way1.poly1.path1.7x1"
  top: "b6.way1.poly1.path1.1x7.conv"
  param {
    lr_mult: 1.0
    decay_mult: 1.0
  }
  convolution_param {
    num_output: 192
    bias_term: false
    weight_filler {
      type: "xavier"
    }
    bias_filler {
      type: "constant"
      value: 0.0
    }
    pad_h: 3
    pad_w: 0
    kernel_h: 7
    kernel_w: 1
    stride_h: 1
    stride_w: 1
  }
}
layer {
  name: "b6.way1.poly1.path1.1x7.bn"
  type: "BN"
  bottom: "b6.way1.poly1.path1.1x7.conv"
  top: "b6.way1.poly1.path1.1x7"
  param {
    lr_mult: 1.0
    decay_mult: 0.0
  }
  param {
    lr_mult: 1.0
    decay_mult: 0.0
  }
  param {
    lr_mult: 0.0
    decay_mult: 0.0
  }
  param {
    lr_mult: 0.0
    decay_mult: 0.0
  }
  bn_param {
    sync_forward: false
    moving_average: true
    decay: 0.99
    scale_filler {
      type: "constant"
      value: 1.0
    }
    shift_filler {
      type: "constant"
      value: 0.0
    }
  }
}
layer {
  name: "b6.way1.poly1.path1.1x7.relu"
  type: "ReLU"
  bottom: "b6.way1.poly1.path1.1x7"
  top: "b6.way1.poly1.path1.1x7"
}
layer {
  name: "b6.way1.poly1.path2.1x1.conv"
  type: "Convolution"
  bottom: "b5"
  top: "b6.way1.poly1.path2.1x1.conv"
  param {
    lr_mult: 1.0
    decay_mult: 1.0
  }
  convolution_param {
    num_output: 192
    bias_term: false
    weight_filler {
      type: "xavier"
    }
    bias_filler {
      type: "constant"
      value: 0.0
    }
    pad_h: 0
    pad_w: 0
    kernel_h: 1
    kernel_w: 1
    stride_h: 1
    stride_w: 1
  }
}
layer {
  name: "b6.way1.poly1.path2.1x1.bn"
  type: "BN"
  bottom: "b6.way1.poly1.path2.1x1.conv"
  top: "b6.way1.poly1.path2.1x1"
  param {
    lr_mult: 1.0
    decay_mult: 0.0
  }
  param {
    lr_mult: 1.0
    decay_mult: 0.0
  }
  param {
    lr_mult: 0.0
    decay_mult: 0.0
  }
  param {
    lr_mult: 0.0
    decay_mult: 0.0
  }
  bn_param {
    sync_forward: false
    moving_average: true
    decay: 0.99
    scale_filler {
      type: "constant"
      value: 1.0
    }
    shift_filler {
      type: "constant"
      value: 0.0
    }
  }
}
layer {
  name: "b6.way1.poly1.path2.1x1.relu"
  type: "ReLU"
  bottom: "b6.way1.poly1.path2.1x1"
  top: "b6.way1.poly1.path2.1x1"
}
layer {
  name: "b6.way1.poly1.concat"
  type: "Concat"
  bottom: "b6.way1.poly1.path1.1x7"
  bottom: "b6.way1.poly1.path2.1x1"
  top: "b6.way1.poly1.concat"
}
layer {
  name: "b6.way1.poly1.1x1.conv"
  type: "Convolution"
  bottom: "b6.way1.poly1.concat"
  top: "b6.way1.poly1.1x1.conv"
  param {
    lr_mult: 1.0
    decay_mult: 1.0
  }
  convolution_param {
    num_output: 1152
    bias_term: false
    weight_filler {
      type: "xavier"
    }
    bias_filler {
      type: "constant"
      value: 0.0
    }
    pad_h: 0
    pad_w: 0
    kernel_h: 1
    kernel_w: 1
    stride_h: 1
    stride_w: 1
  }
}
layer {
  name: "b6.way1.poly1.1x1.bn"
  type: "BN"
  bottom: "b6.way1.poly1.1x1.conv"
  top: "b6.way1.poly1"
  param {
    lr_mult: 1.0
    decay_mult: 0.0
  }
  param {
    lr_mult: 1.0
    decay_mult: 0.0
  }
  param {
    lr_mult: 0.0
    decay_mult: 0.0
  }
  param {
    lr_mult: 0.0
    decay_mult: 0.0
  }
  bn_param {
    sync_forward: false
    moving_average: true
    decay: 0.99
    scale_filler {
      type: "constant"
      value: 1.0
    }
    shift_filler {
      type: "constant"
      value: 0.0
    }
  }
}
layer {
  name: "b6.elt"
  type: "Eltwise"
  bottom: "b5"
  bottom: "b6.way1.poly1"
  top: "b6"
  eltwise_param {
    operation: SUM
    coeff: 1
    coeff: 0.3
  }
}
layer {
  name: "b6.relu"
  type: "ReLU"
  bottom: "b6"
  top: "b6"
}
layer {
  name: "b7.way1.poly1.path1.1x1.conv"
  type: "Convolution"
  bottom: "b6"
  top: "b7.way1.poly1.path1.1x1.conv"
  param {
    lr_mult: 1.0
    decay_mult: 1.0
  }
  convolution_param {
    num_output: 128
    bias_term: false
    weight_filler {
      type: "xavier"
    }
    bias_filler {
      type: "constant"
      value: 0.0
    }
    pad_h: 0
    pad_w: 0
    kernel_h: 1
    kernel_w: 1
    stride_h: 1
    stride_w: 1
  }
}
layer {
  name: "b7.way1.poly1.path1.1x1.bn"
  type: "BN"
  bottom: "b7.way1.poly1.path1.1x1.conv"
  top: "b7.way1.poly1.path1.1x1"
  param {
    lr_mult: 1.0
    decay_mult: 0.0
  }
  param {
    lr_mult: 1.0
    decay_mult: 0.0
  }
  param {
    lr_mult: 0.0
    decay_mult: 0.0
  }
  param {
    lr_mult: 0.0
    decay_mult: 0.0
  }
  bn_param {
    sync_forward: false
    moving_average: true
    decay: 0.99
    scale_filler {
      type: "constant"
      value: 1.0
    }
    shift_filler {
      type: "constant"
      value: 0.0
    }
  }
}
layer {
  name: "b7.way1.poly1.path1.1x1.relu"
  type: "ReLU"
  bottom: "b7.way1.poly1.path1.1x1"
  top: "b7.way1.poly1.path1.1x1"
}
layer {
  name: "b7.way1.poly1.path1.7x1.conv"
  type: "Convolution"
  bottom: "b7.way1.poly1.path1.1x1"
  top: "b7.way1.poly1.path1.7x1.conv"
  param {
    lr_mult: 1.0
    decay_mult: 1.0
  }
  convolution_param {
    num_output: 160
    bias_term: false
    weight_filler {
      type: "xavier"
    }
    bias_filler {
      type: "constant"
      value: 0.0
    }
    pad_h: 0
    pad_w: 3
    kernel_h: 1
    kernel_w: 7
    stride_h: 1
    stride_w: 1
  }
}
layer {
  name: "b7.way1.poly1.path1.7x1.bn"
  type: "BN"
  bottom: "b7.way1.poly1.path1.7x1.conv"
  top: "b7.way1.poly1.path1.7x1"
  param {
    lr_mult: 1.0
    decay_mult: 0.0
  }
  param {
    lr_mult: 1.0
    decay_mult: 0.0
  }
  param {
    lr_mult: 0.0
    decay_mult: 0.0
  }
  param {
    lr_mult: 0.0
    decay_mult: 0.0
  }
  bn_param {
    sync_forward: false
    moving_average: true
    decay: 0.99
    scale_filler {
      type: "constant"
      value: 1.0
    }
    shift_filler {
      type: "constant"
      value: 0.0
    }
  }
}
layer {
  name: "b7.way1.poly1.path1.7x1.relu"
  type: "ReLU"
  bottom: "b7.way1.poly1.path1.7x1"
  top: "b7.way1.poly1.path1.7x1"
}
layer {
  name: "b7.way1.poly1.path1.1x7.conv"
  type: "Convolution"
  bottom: "b7.way1.poly1.path1.7x1"
  top: "b7.way1.poly1.path1.1x7.conv"
  param {
    lr_mult: 1.0
    decay_mult: 1.0
  }
  convolution_param {
    num_output: 192
    bias_term: false
    weight_filler {
      type: "xavier"
    }
    bias_filler {
      type: "constant"
      value: 0.0
    }
    pad_h: 3
    pad_w: 0
    kernel_h: 7
    kernel_w: 1
    stride_h: 1
    stride_w: 1
  }
}
layer {
  name: "b7.way1.poly1.path1.1x7.bn"
  type: "BN"
  bottom: "b7.way1.poly1.path1.1x7.conv"
  top: "b7.way1.poly1.path1.1x7"
  param {
    lr_mult: 1.0
    decay_mult: 0.0
  }
  param {
    lr_mult: 1.0
    decay_mult: 0.0
  }
  param {
    lr_mult: 0.0
    decay_mult: 0.0
  }
  param {
    lr_mult: 0.0
    decay_mult: 0.0
  }
  bn_param {
    sync_forward: false
    moving_average: true
    decay: 0.99
    scale_filler {
      type: "constant"
      value: 1.0
    }
    shift_filler {
      type: "constant"
      value: 0.0
    }
  }
}
layer {
  name: "b7.way1.poly1.path1.1x7.relu"
  type: "ReLU"
  bottom: "b7.way1.poly1.path1.1x7"
  top: "b7.way1.poly1.path1.1x7"
}
layer {
  name: "b7.way1.poly1.path2.1x1.conv"
  type: "Convolution"
  bottom: "b6"
  top: "b7.way1.poly1.path2.1x1.conv"
  param {
    lr_mult: 1.0
    decay_mult: 1.0
  }
  convolution_param {
    num_output: 192
    bias_term: false
    weight_filler {
      type: "xavier"
    }
    bias_filler {
      type: "constant"
      value: 0.0
    }
    pad_h: 0
    pad_w: 0
    kernel_h: 1
    kernel_w: 1
    stride_h: 1
    stride_w: 1
  }
}
layer {
  name: "b7.way1.poly1.path2.1x1.bn"
  type: "BN"
  bottom: "b7.way1.poly1.path2.1x1.conv"
  top: "b7.way1.poly1.path2.1x1"
  param {
    lr_mult: 1.0
    decay_mult: 0.0
  }
  param {
    lr_mult: 1.0
    decay_mult: 0.0
  }
  param {
    lr_mult: 0.0
    decay_mult: 0.0
  }
  param {
    lr_mult: 0.0
    decay_mult: 0.0
  }
  bn_param {
    sync_forward: false
    moving_average: true
    decay: 0.99
    scale_filler {
      type: "constant"
      value: 1.0
    }
    shift_filler {
      type: "constant"
      value: 0.0
    }
  }
}
layer {
  name: "b7.way1.poly1.path2.1x1.relu"
  type: "ReLU"
  bottom: "b7.way1.poly1.path2.1x1"
  top: "b7.way1.poly1.path2.1x1"
}
layer {
  name: "b7.way1.poly1.concat"
  type: "Concat"
  bottom: "b7.way1.poly1.path1.1x7"
  bottom: "b7.way1.poly1.path2.1x1"
  top: "b7.way1.poly1.concat"
}
layer {
  name: "b7.way1.poly1.1x1.conv"
  type: "Convolution"
  bottom: "b7.way1.poly1.concat"
  top: "b7.way1.poly1.1x1.conv"
  param {
    lr_mult: 1.0
    decay_mult: 1.0
  }
  convolution_param {
    num_output: 1152
    bias_term: false
    weight_filler {
      type: "xavier"
    }
    bias_filler {
      type: "constant"
      value: 0.0
    }
    pad_h: 0
    pad_w: 0
    kernel_h: 1
    kernel_w: 1
    stride_h: 1
    stride_w: 1
  }
}
layer {
  name: "b7.way1.poly1.1x1.bn"
  type: "BN"
  bottom: "b7.way1.poly1.1x1.conv"
  top: "b7.way1.poly1"
  param {
    lr_mult: 1.0
    decay_mult: 0.0
  }
  param {
    lr_mult: 1.0
    decay_mult: 0.0
  }
  param {
    lr_mult: 0.0
    decay_mult: 0.0
  }
  param {
    lr_mult: 0.0
    decay_mult: 0.0
  }
  bn_param {
    sync_forward: false
    moving_average: true
    decay: 0.99
    scale_filler {
      type: "constant"
      value: 1.0
    }
    shift_filler {
      type: "constant"
      value: 0.0
    }
  }
}
layer {
  name: "b7.elt"
  type: "Eltwise"
  bottom: "b6"
  bottom: "b7.way1.poly1"
  top: "b7"
  eltwise_param {
    operation: SUM
    coeff: 1
    coeff: 0.3
  }
}
layer {
  name: "b7.relu"
  type: "ReLU"
  bottom: "b7"
  top: "b7"
}
layer {
  name: "b8.way1.poly1.path1.1x1.conv"
  type: "Convolution"
  bottom: "b7"
  top: "b8.way1.poly1.path1.1x1.conv"
  param {
    lr_mult: 1.0
    decay_mult: 1.0
  }
  convolution_param {
    num_output: 128
    bias_term: false
    weight_filler {
      type: "xavier"
    }
    bias_filler {
      type: "constant"
      value: 0.0
    }
    pad_h: 0
    pad_w: 0
    kernel_h: 1
    kernel_w: 1
    stride_h: 1
    stride_w: 1
  }
}
layer {
  name: "b8.way1.poly1.path1.1x1.bn"
  type: "BN"
  bottom: "b8.way1.poly1.path1.1x1.conv"
  top: "b8.way1.poly1.path1.1x1"
  param {
    lr_mult: 1.0
    decay_mult: 0.0
  }
  param {
    lr_mult: 1.0
    decay_mult: 0.0
  }
  param {
    lr_mult: 0.0
    decay_mult: 0.0
  }
  param {
    lr_mult: 0.0
    decay_mult: 0.0
  }
  bn_param {
    sync_forward: false
    moving_average: true
    decay: 0.99
    scale_filler {
      type: "constant"
      value: 1.0
    }
    shift_filler {
      type: "constant"
      value: 0.0
    }
  }
}
layer {
  name: "b8.way1.poly1.path1.1x1.relu"
  type: "ReLU"
  bottom: "b8.way1.poly1.path1.1x1"
  top: "b8.way1.poly1.path1.1x1"
}
layer {
  name: "b8.way1.poly1.path1.7x1.conv"
  type: "Convolution"
  bottom: "b8.way1.poly1.path1.1x1"
  top: "b8.way1.poly1.path1.7x1.conv"
  param {
    lr_mult: 1.0
    decay_mult: 1.0
  }
  convolution_param {
    num_output: 160
    bias_term: false
    weight_filler {
      type: "xavier"
    }
    bias_filler {
      type: "constant"
      value: 0.0
    }
    pad_h: 0
    pad_w: 3
    kernel_h: 1
    kernel_w: 7
    stride_h: 1
    stride_w: 1
  }
}
layer {
  name: "b8.way1.poly1.path1.7x1.bn"
  type: "BN"
  bottom: "b8.way1.poly1.path1.7x1.conv"
  top: "b8.way1.poly1.path1.7x1"
  param {
    lr_mult: 1.0
    decay_mult: 0.0
  }
  param {
    lr_mult: 1.0
    decay_mult: 0.0
  }
  param {
    lr_mult: 0.0
    decay_mult: 0.0
  }
  param {
    lr_mult: 0.0
    decay_mult: 0.0
  }
  bn_param {
    sync_forward: false
    moving_average: true
    decay: 0.99
    scale_filler {
      type: "constant"
      value: 1.0
    }
    shift_filler {
      type: "constant"
      value: 0.0
    }
  }
}
layer {
  name: "b8.way1.poly1.path1.7x1.relu"
  type: "ReLU"
  bottom: "b8.way1.poly1.path1.7x1"
  top: "b8.way1.poly1.path1.7x1"
}
layer {
  name: "b8.way1.poly1.path1.1x7.conv"
  type: "Convolution"
  bottom: "b8.way1.poly1.path1.7x1"
  top: "b8.way1.poly1.path1.1x7.conv"
  param {
    lr_mult: 1.0
    decay_mult: 1.0
  }
  convolution_param {
    num_output: 192
    bias_term: false
    weight_filler {
      type: "xavier"
    }
    bias_filler {
      type: "constant"
      value: 0.0
    }
    pad_h: 3
    pad_w: 0
    kernel_h: 7
    kernel_w: 1
    stride_h: 1
    stride_w: 1
  }
}
layer {
  name: "b8.way1.poly1.path1.1x7.bn"
  type: "BN"
  bottom: "b8.way1.poly1.path1.1x7.conv"
  top: "b8.way1.poly1.path1.1x7"
  param {
    lr_mult: 1.0
    decay_mult: 0.0
  }
  param {
    lr_mult: 1.0
    decay_mult: 0.0
  }
  param {
    lr_mult: 0.0
    decay_mult: 0.0
  }
  param {
    lr_mult: 0.0
    decay_mult: 0.0
  }
  bn_param {
    sync_forward: false
    moving_average: true
    decay: 0.99
    scale_filler {
      type: "constant"
      value: 1.0
    }
    shift_filler {
      type: "constant"
      value: 0.0
    }
  }
}
layer {
  name: "b8.way1.poly1.path1.1x7.relu"
  type: "ReLU"
  bottom: "b8.way1.poly1.path1.1x7"
  top: "b8.way1.poly1.path1.1x7"
}
layer {
  name: "b8.way1.poly1.path2.1x1.conv"
  type: "Convolution"
  bottom: "b7"
  top: "b8.way1.poly1.path2.1x1.conv"
  param {
    lr_mult: 1.0
    decay_mult: 1.0
  }
  convolution_param {
    num_output: 192
    bias_term: false
    weight_filler {
      type: "xavier"
    }
    bias_filler {
      type: "constant"
      value: 0.0
    }
    pad_h: 0
    pad_w: 0
    kernel_h: 1
    kernel_w: 1
    stride_h: 1
    stride_w: 1
  }
}
layer {
  name: "b8.way1.poly1.path2.1x1.bn"
  type: "BN"
  bottom: "b8.way1.poly1.path2.1x1.conv"
  top: "b8.way1.poly1.path2.1x1"
  param {
    lr_mult: 1.0
    decay_mult: 0.0
  }
  param {
    lr_mult: 1.0
    decay_mult: 0.0
  }
  param {
    lr_mult: 0.0
    decay_mult: 0.0
  }
  param {
    lr_mult: 0.0
    decay_mult: 0.0
  }
  bn_param {
    sync_forward: false
    moving_average: true
    decay: 0.99
    scale_filler {
      type: "constant"
      value: 1.0
    }
    shift_filler {
      type: "constant"
      value: 0.0
    }
  }
}
layer {
  name: "b8.way1.poly1.path2.1x1.relu"
  type: "ReLU"
  bottom: "b8.way1.poly1.path2.1x1"
  top: "b8.way1.poly1.path2.1x1"
}
layer {
  name: "b8.way1.poly1.concat"
  type: "Concat"
  bottom: "b8.way1.poly1.path1.1x7"
  bottom: "b8.way1.poly1.path2.1x1"
  top: "b8.way1.poly1.concat"
}
layer {
  name: "b8.way1.poly1.1x1.conv"
  type: "Convolution"
  bottom: "b8.way1.poly1.concat"
  top: "b8.way1.poly1.1x1.conv"
  param {
    lr_mult: 1.0
    decay_mult: 1.0
  }
  convolution_param {
    num_output: 1152
    bias_term: false
    weight_filler {
      type: "xavier"
    }
    bias_filler {
      type: "constant"
      value: 0.0
    }
    pad_h: 0
    pad_w: 0
    kernel_h: 1
    kernel_w: 1
    stride_h: 1
    stride_w: 1
  }
}
layer {
  name: "b8.way1.poly1.1x1.bn"
  type: "BN"
  bottom: "b8.way1.poly1.1x1.conv"
  top: "b8.way1.poly1"
  param {
    lr_mult: 1.0
    decay_mult: 0.0
  }
  param {
    lr_mult: 1.0
    decay_mult: 0.0
  }
  param {
    lr_mult: 0.0
    decay_mult: 0.0
  }
  param {
    lr_mult: 0.0
    decay_mult: 0.0
  }
  bn_param {
    sync_forward: false
    moving_average: true
    decay: 0.99
    scale_filler {
      type: "constant"
      value: 1.0
    }
    shift_filler {
      type: "constant"
      value: 0.0
    }
  }
}
layer {
  name: "b8.elt"
  type: "Eltwise"
  bottom: "b7"
  bottom: "b8.way1.poly1"
  top: "b8"
  eltwise_param {
    operation: SUM
    coeff: 1
    coeff: 0.3
  }
}
layer {
  name: "b8.relu"
  type: "ReLU"
  bottom: "b8"
  top: "b8"
}
layer {
  name: "b9.way1.poly1.path1.1x1.conv"
  type: "Convolution"
  bottom: "b8"
  top: "b9.way1.poly1.path1.1x1.conv"
  param {
    lr_mult: 1.0
    decay_mult: 1.0
  }
  convolution_param {
    num_output: 128
    bias_term: false
    weight_filler {
      type: "xavier"
    }
    bias_filler {
      type: "constant"
      value: 0.0
    }
    pad_h: 0
    pad_w: 0
    kernel_h: 1
    kernel_w: 1
    stride_h: 1
    stride_w: 1
  }
}
layer {
  name: "b9.way1.poly1.path1.1x1.bn"
  type: "BN"
  bottom: "b9.way1.poly1.path1.1x1.conv"
  top: "b9.way1.poly1.path1.1x1"
  param {
    lr_mult: 1.0
    decay_mult: 0.0
  }
  param {
    lr_mult: 1.0
    decay_mult: 0.0
  }
  param {
    lr_mult: 0.0
    decay_mult: 0.0
  }
  param {
    lr_mult: 0.0
    decay_mult: 0.0
  }
  bn_param {
    sync_forward: false
    moving_average: true
    decay: 0.99
    scale_filler {
      type: "constant"
      value: 1.0
    }
    shift_filler {
      type: "constant"
      value: 0.0
    }
  }
}
layer {
  name: "b9.way1.poly1.path1.1x1.relu"
  type: "ReLU"
  bottom: "b9.way1.poly1.path1.1x1"
  top: "b9.way1.poly1.path1.1x1"
}
layer {
  name: "b9.way1.poly1.path1.7x1.conv"
  type: "Convolution"
  bottom: "b9.way1.poly1.path1.1x1"
  top: "b9.way1.poly1.path1.7x1.conv"
  param {
    lr_mult: 1.0
    decay_mult: 1.0
  }
  convolution_param {
    num_output: 160
    bias_term: false
    weight_filler {
      type: "xavier"
    }
    bias_filler {
      type: "constant"
      value: 0.0
    }
    pad_h: 0
    pad_w: 3
    kernel_h: 1
    kernel_w: 7
    stride_h: 1
    stride_w: 1
  }
}
layer {
  name: "b9.way1.poly1.path1.7x1.bn"
  type: "BN"
  bottom: "b9.way1.poly1.path1.7x1.conv"
  top: "b9.way1.poly1.path1.7x1"
  param {
    lr_mult: 1.0
    decay_mult: 0.0
  }
  param {
    lr_mult: 1.0
    decay_mult: 0.0
  }
  param {
    lr_mult: 0.0
    decay_mult: 0.0
  }
  param {
…
  name: "c2.way1.poly1.1x1.bn"
  type: "BN"
  bottom: "c2.way1.poly1.1x1.conv"
  top: "c2.way1.poly1"
  param {
    lr_mult: 1.0
    decay_mult: 0.0
  }
  param {
    lr_mult: 1.0
    decay_mult: 0.0
  }
  param {
    lr_mult: 0.0
    decay_mult: 0.0
  }
  param {
    lr_mult: 0.0
    decay_mult: 0.0
  }
  bn_param {
    sync_forward: false
    moving_average: true
    decay: 0.99
    scale_filler {
      type: "constant"
      value: 1.0
    }
    shift_filler {
      type: "constant"
      value: 0.0
    }
  }
}
layer {
  name: "c2.elt"
  type: "Eltwise"
  bottom: "c1"
  bottom: "c2.way1.poly1"
  top: "c2"
  eltwise_param {
    operation: SUM
    coeff: 1
    coeff: 0.3
  }
}
layer {
  name: "c2.relu"
  type: "ReLU"
  bottom: "c2"
  top: "c2"
}
layer {
  name: "c3.way1.poly1.path1.1x1.conv"
  type: "Convolution"
  bottom: "c2"
  top: "c3.way1.poly1.path1.1x1.conv"
  param {
    lr_mult: 1.0
    decay_mult: 1.0
  }
  convolution_param {
    num_output: 192
    bias_term: false
    weight_filler {
      type: "xavier"
    }
    bias_filler {
      type: "constant"
      value: 0.0
    }
    pad_h: 0
    pad_w: 0
    kernel_h: 1
    kernel_w: 1
    stride_h: 1
    stride_w: 1
  }
}
layer {
  name: "c3.way1.poly1.path1.1x1.bn"
  type: "BN"
  bottom: "c3.way1.poly1.path1.1x1.conv"
  top: "c3.way1.poly1.path1.1x1"
  param {
    lr_mult: 1.0
    decay_mult: 0.0
  }
  param {
    lr_mult: 1.0
    decay_mult: 0.0
  }
  param {
    lr_mult: 0.0
    decay_mult: 0.0
  }
  param {
    lr_mult: 0.0
    decay_mult: 0.0
  }
  bn_param {
    sync_forward: false
    moving_average: true
    decay: 0.99
    scale_filler {
      type: "constant"
      value: 1.0
    }
    shift_filler {
      type: "constant"
      value: 0.0
    }
  }
}
layer {
  name: "c3.way1.poly1.path1.1x1.relu"
  type: "ReLU"
  bottom: "c3.way1.poly1.path1.1x1"
  top: "c3.way1.poly1.path1.1x1"
}
layer {
  name: "c3.way1.poly1.path1.3x1.conv"
  type: "Convolution"
  bottom: "c3.way1.poly1.path1.1x1"
  top: "c3.way1.poly1.path1.3x1.conv"
  param {
    lr_mult: 1.0
    decay_mult: 1.0
  }
  convolution_param {
    num_output: 224
    bias_term: false
    weight_filler {
      type: "xavier"
    }
    bias_filler {
      type: "constant"
      value: 0.0
    }
    pad_h: 0
    pad_w: 1
    kernel_h: 1
    kernel_w: 3
    stride_h: 1
    stride_w: 1
  }
}
layer {
  name: "c3.way1.poly1.path1.3x1.bn"
  type: "BN"
  bottom: "c3.way1.poly1.path1.3x1.conv"
  top: "c3.way1.poly1.path1.3x1"
  param {
    lr_mult: 1.0
    decay_mult: 0.0
  }
  param {
    lr_mult: 1.0
    decay_mult: 0.0
  }
  param {
    lr_mult: 0.0
    decay_mult: 0.0
  }
  param {
    lr_mult: 0.0
    decay_mult: 0.0
  }
  bn_param {
    sync_forward: false
    moving_average: true
    decay: 0.99
    scale_filler {
      type: "constant"
      value: 1.0
    }
    shift_filler {
      type: "constant"
      value: 0.0
    }
  }
}
layer {
  name: "c3.way1.poly1.path1.3x1.relu"
  type: "ReLU"
  bottom: "c3.way1.poly1.path1.3x1"
  top: "c3.way1.poly1.path1.3x1"
}
layer {
  name: "c3.way1.poly1.path1.1x3.conv"
  type: "Convolution"
  bottom: "c3.way1.poly1.path1.3x1"
  top: "c3.way1.poly1.path1.1x3.conv"
  param {
    lr_mult: 1.0
    decay_mult: 1.0
  }
  convolution_param {
    num_output: 256
    bias_term: false
    weight_filler {
      type: "xavier"
    }
    bias_filler {
      type: "constant"
      value: 0.0
    }
    pad_h: 1
    pad_w: 0
    kernel_h: 3
    kernel_w: 1
    stride_h: 1
    stride_w: 1
  }
}
layer {
  name: "c3.way1.poly1.path1.1x3.bn"
  type: "BN"
  bottom: "c3.way1.poly1.path1.1x3.conv"
  top: "c3.way1.poly1.path1.1x3"
  param {
    lr_mult: 1.0
    decay_mult: 0.0
  }
  param {
    lr_mult: 1.0
    decay_mult: 0.0
  }
  param {
    lr_mult: 0.0
    decay_mult: 0.0
  }
  param {
    lr_mult: 0.0
    decay_mult: 0.0
  }
  bn_param {
    sync_forward: false
    moving_average: true
    decay: 0.99
    scale_filler {
      type: "constant"
      value: 1.0
    }
    shift_filler {
      type: "constant"
      value: 0.0
    }
  }
}
layer {
  name: "c3.way1.poly1.path1.1x3.relu"
  type: "ReLU"
  bottom: "c3.way1.poly1.path1.1x3"
  top: "c3.way1.poly1.path1.1x3"
}
layer {
  name: "c3.way1.poly1.path2.1x1.conv"
  type: "Convolution"
  bottom: "c2"
  top: "c3.way1.poly1.path2.1x1.conv"
  param {
    lr_mult: 1.0
    decay_mult: 1.0
  }
  convolution_param {
    num_output: 192
    bias_term: false
    weight_filler {
      type: "xavier"
    }
    bias_filler {
      type: "constant"
      value: 0.0
    }
    pad_h: 0
    pad_w: 0
    kernel_h: 1
    kernel_w: 1
    stride_h: 1
    stride_w: 1
  }
}
layer {
  name: "c3.way1.poly1.path2.1x1.bn"
  type: "BN"
  bottom: "c3.way1.poly1.path2.1x1.conv"
  top: "c3.way1.poly1.path2.1x1"
  param {
    lr_mult: 1.0
    decay_mult: 0.0
  }
  param {
    lr_mult: 1.0
    decay_mult: 0.0
  }
  param {
    lr_mult: 0.0
    decay_mult: 0.0
  }
  param {
    lr_mult: 0.0
    decay_mult: 0.0
  }
  bn_param {
    sync_forward: false
    moving_average: true
    decay: 0.99
    scale_filler {
      type: "constant"
      value: 1.0
    }
    shift_filler {
      type: "constant"
      value: 0.0
    }
  }
}
layer {
  name: "c3.way1.poly1.path2.1x1.relu"
  type: "ReLU"
  bottom: "c3.way1.poly1.path2.1x1"
  top: "c3.way1.poly1.path2.1x1"
}
layer {
  name: "c3.way1.poly1.concat"
  type: "Concat"
  bottom: "c3.way1.poly1.path1.1x3"
  bottom: "c3.way1.poly1.path2.1x1"
  top: "c3.way1.poly1.concat"
}
layer {
  name: "c3.way1.poly1.1x1.conv"
  type: "Convolution"
  bottom: "c3.way1.poly1.concat"
  top: "c3.way1.poly1.1x1.conv"
  param {
    lr_mult: 1.0
    decay_mult: 1.0
  }
  convolution_param {
    num_output: 2048
    bias_term: false
    weight_filler {
      type: "xavier"
    }
    bias_filler {
      type: "constant"
      value: 0.0
    }
    pad_h: 0
    pad_w: 0
    kernel_h: 1
    kernel_w: 1
    stride_h: 1
    stride_w: 1
  }
}
layer {
  name: "c3.way1.poly1.1x1.bn"
  type: "BN"
  bottom: "c3.way1.poly1.1x1.conv"
  top: "c3.way1.poly1"
  param {
    lr_mult: 1.0
    decay_mult: 0.0
  }
  param {
    lr_mult: 1.0
    decay_mult: 0.0
  }
  param {
    lr_mult: 0.0
    decay_mult: 0.0
  }
  param {
    lr_mult: 0.0
    decay_mult: 0.0
  }
  bn_param {
    sync_forward: false
    moving_average: true
    decay: 0.99
    scale_filler {
      type: "constant"
      value: 1.0
    }
    shift_filler {
      type: "constant"
      value: 0.0
    }
  }
}
layer {
  name: "c3.elt"
  type: "Eltwise"
  bottom: "c2"
  bottom: "c3.way1.poly1"
  top: "c3"
  eltwise_param {
    operation: SUM
    coeff: 1
    coeff: 0.3
  }
}
layer {
  name: "c3.relu"
  type: "ReLU"
  bottom: "c3"
  top: "c3"
}
layer {
  name: "c4.way1.poly1.path1.1x1.conv"
  type: "Convolution"
  bottom: "c3"
  top: "c4.way1.poly1.path1.1x1.conv"
  param {
    lr_mult: 1.0
    decay_mult: 1.0
  }
  convolution_param {
    num_output: 192
    bias_term: false
    weight_filler {
      type: "xavier"
    }
    bias_filler {
      type: "constant"
      value: 0.0
    }
    pad_h: 0
    pad_w: 0
    kernel_h: 1
    kernel_w: 1
    stride_h: 1
    stride_w: 1
  }
}
layer {
  name: "c4.way1.poly1.path1.1x1.bn"
  type: "BN"
  bottom: "c4.way1.poly1.path1.1x1.conv"
  top: "c4.way1.poly1.path1.1x1"
  param {
    lr_mult: 1.0
    decay_mult: 0.0
  }
  param {
    lr_mult: 1.0
    decay_mult: 0.0
  }
  param {
    lr_mult: 0.0
    decay_mult: 0.0
  }
  param {
    lr_mult: 0.0
    decay_mult: 0.0
  }
  bn_param {
    sync_forward: false
    moving_average: true
    decay: 0.99
    scale_filler {
      type: "constant"
      value: 1.0
    }
    shift_filler {
      type: "constant"
      value: 0.0
    }
  }
}
layer {
  name: "c4.way1.poly1.path1.1x1.relu"
  type: "ReLU"
  bottom: "c4.way1.poly1.path1.1x1"
  top: "c4.way1.poly1.path1.1x1"
}
layer {
  name: "c4.way1.poly1.path1.3x1.conv"
  type: "Convolution"
  bottom: "c4.way1.poly1.path1.1x1"
  top: "c4.way1.poly1.path1.3x1.conv"
  param {
    lr_mult: 1.0
    decay_mult: 1.0
  }
  convolution_param {
    num_output: 224
    bias_term: false
    weight_filler {
      type: "xavier"
    }
    bias_filler {
      type: "constant"
      value: 0.0
    }
    pad_h: 0
    pad_w: 1
    kernel_h: 1
    kernel_w: 3
    stride_h: 1
    stride_w: 1
  }
}
layer {
  name: "c4.way1.poly1.path1.3x1.bn"
  type: "BN"
  bottom: "c4.way1.poly1.path1.3x1.conv"
  top: "c4.way1.poly1.path1.3x1"
  param {
    lr_mult: 1.0
    decay_mult: 0.0
  }
  param {
    lr_mult: 1.0
    decay_mult: 0.0
  }
  param {
    lr_mult: 0.0
    decay_mult: 0.0
  }
  param {
    lr_mult: 0.0
    decay_mult: 0.0
  }
  bn_param {
    sync_forward: false
    moving_average: true
    decay: 0.99
    scale_filler {
      type: "constant"
      value: 1.0
    }
    shift_filler {
      type: "constant"
      value: 0.0
    }
  }
}
layer {
  name: "c4.way1.poly1.path1.3x1.relu"
  type: "ReLU"
  bottom: "c4.way1.poly1.path1.3x1"
  top: "c4.way1.poly1.path1.3x1"
}
layer {
  name: "c4.way1.poly1.path1.1x3.conv"
  type: "Convolution"
  bottom: "c4.way1.poly1.path1.3x1"
  top: "c4.way1.poly1.path1.1x3.conv"
  param {
    lr_mult: 1.0
    decay_mult: 1.0
  }
  convolution_param {
    num_output: 256
    bias_term: false
    weight_filler {
      type: "xavier"
    }
    bias_filler {
      type: "constant"
      value: 0.0
    }
    pad_h: 1
    pad_w: 0
    kernel_h: 3
    kernel_w: 1
    stride_h: 1
    stride_w: 1
  }
}
layer {
  name: "c4.way1.poly1.path1.1x3.bn"
  type: "BN"
  bottom: "c4.way1.poly1.path1.1x3.conv"
  top: "c4.way1.poly1.path1.1x3"
  param {
    lr_mult: 1.0
    decay_mult: 0.0
  }
  param {
    lr_mult: 1.0
    decay_mult: 0.0
  }
  param {
    lr_mult: 0.0
    decay_mult: 0.0
  }
  param {
    lr_mult: 0.0
    decay_mult: 0.0
  }
  bn_param {
    sync_forward: false
    moving_average: true
    decay: 0.99
    scale_filler {
      type: "constant"
      value: 1.0
    }
    shift_filler {
      type: "constant"
      value: 0.0
    }
  }
}
layer {
  name: "c4.way1.poly1.path1.1x3.relu"
  type: "ReLU"
  bottom: "c4.way1.poly1.path1.1x3"
  top: "c4.way1.poly1.path1.1x3"
}
layer {
  name: "c4.way1.poly1.path2.1x1.conv"
  type: "Convolution"
  bottom: "c3"
  top: "c4.way1.poly1.path2.1x1.conv"
  param {
    lr_mult: 1.0
    decay_mult: 1.0
  }
  convolution_param {
    num_output: 192
    bias_term: false
    weight_filler {
      type: "xavier"
    }
    bias_filler {
      type: "constant"
      value: 0.0
    }
    pad_h: 0
    pad_w: 0
    kernel_h: 1
    kernel_w: 1
    stride_h: 1
    stride_w: 1
  }
}
layer {
  name: "c4.way1.poly1.path2.1x1.bn"
  type: "BN"
  bottom: "c4.way1.poly1.path2.1x1.conv"
  top: "c4.way1.poly1.path2.1x1"
  param {
    lr_mult: 1.0
    decay_mult: 0.0
  }
  param {
    lr_mult: 1.0
    decay_mult: 0.0
  }
  param {
    lr_mult: 0.0
    decay_mult: 0.0
  }
  param {
    lr_mult: 0.0
    decay_mult: 0.0
  }
  bn_param {
    sync_forward: false
    moving_average: true
    decay: 0.99
    scale_filler {
      type: "constant"
      value: 1.0
    }
    shift_filler {
      type: "constant"
      value: 0.0
    }
  }
}
layer {
  name: "c4.way1.poly1.path2.1x1.relu"
  type: "ReLU"
  bottom: "c4.way1.poly1.path2.1x1"
  top: "c4.way1.poly1.path2.1x1"
}
layer {
  name: "c4.way1.poly1.concat"
  type: "Concat"
  bottom: "c4.way1.poly1.path1.1x3"
  bottom: "c4.way1.poly1.path2.1x1"
  top: "c4.way1.poly1.concat"
}
layer {
  name: "c4.way1.poly1.1x1.conv"
  type: "Convolution"
  bottom: "c4.way1.poly1.concat"
  top: "c4.way1.poly1.1x1.conv"
  param {
    lr_mult: 1.0
    decay_mult: 1.0
  }
  convolution_param {
    num_output: 2048
    bias_term: false
    weight_filler {
      type: "xavier"
    }
    bias_filler {
      type: "constant"
      value: 0.0
    }
    pad_h: 0
    pad_w: 0
    kernel_h: 1
    kernel_w: 1
    stride_h: 1
    stride_w: 1
  }
}
layer {
  name: "c4.way1.poly1.1x1.bn"
  type: "BN"
  bottom: "c4.way1.poly1.1x1.conv"
  top: "c4.way1.poly1"
  param {
    lr_mult: 1.0
    decay_mult: 0.0
  }
  param {
    lr_mult: 1.0
    decay_mult: 0.0
  }
  param {
    lr_mult: 0.0
    decay_mult: 0.0
  }
  param {
    lr_mult: 0.0
    decay_mult: 0.0
  }
  bn_param {
    sync_forward: false
    moving_average: true
    decay: 0.99
    scale_filler {
      type: "constant"
      value: 1.0
    }
    shift_filler {
      type: "constant"
      value: 0.0
    }
  }
}
layer {
  name: "c4.elt"
  type: "Eltwise"
  bottom: "c3"
  bottom: "c4.way1.poly1"
  top: "c4"
  eltwise_param {
    operation: SUM
    coeff: 1
    coeff: 0.3
  }
}
layer {
  name: "c4.relu"
  type: "ReLU"
  bottom: "c4"
  top: "c4"
}
layer {
  name: "c5.way1.poly1.path1.1x1.conv"
  type: "Convolution"
  bottom: "c4"
  top: "c5.way1.poly1.path1.1x1.conv"
  param {
    lr_mult: 1.0
    decay_mult: 1.0
  }
  convolution_param {
    num_output: 192
    bias_term: false
    weight_filler {
      type: "xavier"
    }
    bias_filler {
      type: "constant"
      value: 0.0
    }
    pad_h: 0
    pad_w: 0
    kernel_h: 1
    kernel_w: 1
    stride_h: 1
    stride_w: 1
  }
}
layer {
  name: "c5.way1.poly1.path1.1x1.bn"
  type: "BN"
  bottom: "c5.way1.poly1.path1.1x1.conv"
  top: "c5.way1.poly1.path1.1x1"
  param {
    lr_mult: 1.0
    decay_mult: 0.0
  }
  param {
    lr_mult: 1.0
    decay_mult: 0.0
  }
  param {
    lr_mult: 0.0
    decay_mult: 0.0
  }
  param {
    lr_mult: 0.0
    decay_mult: 0.0
  }
  bn_param {
    sync_forward: false
    moving_average: true
    decay: 0.99
    scale_filler {
      type: "constant"
      value: 1.0
    }
    shift_filler {
      type: "constant"
      value: 0.0
    }
  }
}
layer {
  name: "c5.way1.poly1.path1.1x1.relu"
  type: "ReLU"
  bottom: "c5.way1.poly1.path1.1x1"
  top: "c5.way1.poly1.path1.1x1"
}
layer {
  name: "c5.way1.poly1.path1.3x1.conv"
  type: "Convolution"
  bottom: "c5.way1.poly1.path1.1x1"
  top: "c5.way1.poly1.path1.3x1.conv"
  param {
    lr_mult: 1.0
    decay_mult: 1.0
  }
  convolution_param {
    num_output: 224
    bias_term: false
    weight_filler {
      type: "xavier"
    }
    bias_filler {
      type: "constant"
      value: 0.0
    }
    pad_h: 0
    pad_w: 1
    kernel_h: 1
    kernel_w: 3
    stride_h: 1
    stride_w: 1
  }
}
layer {
  name: "c5.way1.poly1.path1.3x1.bn"
  type: "BN"
  bottom: "c5.way1.poly1.path1.3x1.conv"
  top: "c5.way1.poly1.path1.3x1"
  param {
    lr_mult: 1.0
    decay_mult: 0.0
  }
  param {
    lr_mult: 1.0
    decay_mult: 0.0
  }
  param {
    lr_mult: 0.0
    decay_mult: 0.0
  }
  param {
    lr_mult: 0.0
    decay_mult: 0.0
  }
  bn_param {
    sync_forward: false
    moving_average: true
    decay: 0.99
    scale_filler {
      type: "constant"
      value: 1.0
    }
    shift_filler {
      type: "constant"
      value: 0.0
    }
  }
}
layer {
  name: "c5.way1.poly1.path1.3x1.relu"
  type: "ReLU"
  bottom: "c5.way1.poly1.path1.3x1"
  top: "c5.way1.poly1.path1.3x1"
}
layer {
  name: "c5.way1.poly1.path1.1x3.conv"
  type: "Convolution"
  bottom: "c5.way1.poly1.path1.3x1"
  top: "c5.way1.poly1.path1.1x3.conv"
  param {
    lr_mult: 1.0
    decay_mult: 1.0
  }
  convolution_param {
    num_output: 256
    bias_term: false
    weight_filler {
      type: "xavier"
    }
    bias_filler {
      type: "constant"
      value: 0.0
    }
    pad_h: 1
    pad_w: 0
    kernel_h: 3
    kernel_w: 1
    stride_h: 1
    stride_w: 1
  }
}
layer {
  name: "c5.way1.poly1.path1.1x3.bn"
  type: "BN"
  bottom: "c5.way1.poly1.path1.1x3.conv"
  top: "c5.way1.poly1.path1.1x3"
  param {
    lr_mult: 1.0
    decay_mult: 0.0
  }
  param {
    lr_mult: 1.0
    decay_mult: 0.0
  }
  param {
    lr_mult: 0.0
    decay_mult: 0.0
  }
  param {
    lr_mult: 0.0
    decay_mult: 0.0
  }
  bn_param {
    sync_forward: false
    moving_average: true
    decay: 0.99
    scale_filler {
      type: "constant"
      value: 1.0
    }
    shift_filler {
      type: "constant"
      value: 0.0
    }
  }
}
layer {
  name: "c5.way1.poly1.path1.1x3.relu"
  type: "ReLU"
  bottom: "c5.way1.poly1.path1.1x3"
  top: "c5.way1.poly1.path1.1x3"
}
layer {
  name: "c5.way1.poly1.path2.1x1.conv"
  type: "Convolution"
  bottom: "c4"
  top: "c5.way1.poly1.path2.1x1.conv"
  param {
    lr_mult: 1.0
    decay_mult: 1.0
  }
  convolution_param {
    num_output: 192
    bias_term: false
    weight_filler {
      type: "xavier"
    }
    bias_filler {
      type: "constant"
      value: 0.0
    }
    pad_h: 0
    pad_w: 0
    kernel_h: 1
    kernel_w: 1
    stride_h: 1
    stride_w: 1
  }
}
layer {
  name: "c5.way1.poly1.path2.1x1.bn"
  type: "BN"
  bottom: "c5.way1.poly1.path2.1x1.conv"
  top: "c5.way1.poly1.path2.1x1"
  param {
    lr_mult: 1.0
    decay_mult: 0.0
  }
  param {
    lr_mult: 1.0
    decay_mult: 0.0
  }
  param {
    lr_mult: 0.0
    decay_mult: 0.0
  }
  param {
    lr_mult: 0.0
    decay_mult: 0.0
  }
  bn_param {
    sync_forward: false
    moving_average: true
    decay: 0.99
    scale_filler {
      type: "constant"
      value: 1.0
    }
    shift_filler {
      type: "constant"
      value: 0.0
    }
  }
}
layer {
  name: "c5.way1.poly1.path2.1x1.relu"
  type: "ReLU"
  bottom: "c5.way1.poly1.path2.1x1"
  top: "c5.way1.poly1.path2.1x1"
}
layer {
  name: "c5.way1.poly1.concat"
  type: "Concat"
  bottom: "c5.way1.poly1.path1.1x3"
  bottom: "c5.way1.poly1.path2.1x1"
  top: "c5.way1.poly1.concat"
}
layer {
  name: "c5.way1.poly1.1x1.conv"
  type: "Convolution"
  bottom: "c5.way1.poly1.concat"
  top: "c5.way1.poly1.1x1.conv"
  param {
    lr_mult: 1.0
    decay_mult: 1.0
  }
  convolution_param {
    num_output: 2048
    bias_term: false
    weight_filler {
      type: "xavier"
    }
    bias_filler {
      type: "constant"
      value: 0.0
    }
    pad_h: 0
    pad_w: 0
    kernel_h: 1
    kernel_w: 1
    stride_h: 1
    stride_w: 1
  }
}
layer {
  name: "c5.way1.poly1.1x1.bn"
  type: "BN"
  bottom: "c5.way1.poly1.1x1.conv"
  top: "c5.way1.poly1"
  param {
    lr_mult: 1.0
    decay_mult: 0.0
  }
  param {
    lr_mult: 1.0
    decay_mult: 0.0
  }
  param {
    lr_mult: 0.0
    decay_mult: 0.0
  }
  param {
    lr_mult: 0.0
    decay_mult: 0.0
  }
  bn_param {
    sync_forward: false
    moving_average: true
    decay: 0.99
    scale_filler {
      type: "constant"
      value: 1.0
    }
    shift_filler {
      type: "constant"
      value: 0.0
    }
  }
}
layer {
  name: "c5.elt"
  type: "Eltwise"
  bottom: "c4"
  bottom: "c5.way1.poly1"
  top: "c5"
  eltwise_param {
    operation: SUM
    coeff: 1
    coeff: 0.3
  }
}
layer {
  name: "c5.relu"
  type: "ReLU"
  bottom: "c5"
  top: "c5"
}
layer {
  name: "c6.way1.poly1.path1.1x1.conv"
  type: "Convolution"
  bottom: "c5"
  top: "c6.way1.poly1.path1.1x1.conv"
  param {
    lr_mult: 1.0
    decay_mult: 1.0
  }
  convolution_param {
    num_output: 192
    bias_term: false
    weight_filler {
      type: "xavier"
    }
    bias_filler {
      type: "constant"
      value: 0.0
    }
    pad_h: 0
    pad_w: 0
    kernel_h: 1
    kernel_w: 1
    stride_h: 1
    stride_w: 1
  }
}
layer {
  name: "c6.way1.poly1.path1.1x1.bn"
  type: "BN"
  bottom: "c6.way1.poly1.path1.1x1.conv"
  top: "c6.way1.poly1.path1.1x1"
  param {
    lr_mult: 1.0
    decay_mult: 0.0
  }
  param {
    lr_mult: 1.0
    decay_mult: 0.0
  }
  param {
    lr_mult: 0.0
    decay_mult: 0.0
  }
  param {
    lr_mult: 0.0
    decay_mult: 0.0
  }
  bn_param {
    sync_forward: false
    moving_average: true
    decay: 0.99
    scale_filler {
      type: "constant"
      value: 1.0
    }
    shift_filler {
      type: "constant"
      value: 0.0
    }
  }
}
layer {
  name: "c6.way1.poly1.path1.1x1.relu"
  type: "ReLU"
  bottom: "c6.way1.poly1.path1.1x1"
  top: "c6.way1.poly1.path1.1x1"
}
layer {
  name: "c6.way1.poly1.path1.3x1.conv"
  type: "Convolution"
  bottom: "c6.way1.poly1.path1.1x1"
  top: "c6.way1.poly1.path1.3x1.conv"
  param {
    lr_mult: 1.0
    decay_mult: 1.0
  }
  convolution_param {
    num_output: 224
    bias_term: false
    weight_filler {
      type: "xavier"
    }
    bias_filler {
      type: "constant"
      value: 0.0
    }
    pad_h: 0
    pad_w: 1
    kernel_h: 1
    kernel_w: 3
    stride_h: 1
    stride_w: 1
  }
}
layer {
  name: "c6.way1.poly1.path1.3x1.bn"
  type: "BN"
  bottom: "c6.way1.poly1.path1.3x1.conv"
  top: "c6.way1.poly1.path1.3x1"
  param {
    lr_mult: 1.0
    decay_mult: 0.0
  }
  param {
    lr_mult: 1.0
    decay_mult: 0.0
  }
  param {
    lr_mult: 0.0
    decay_mult: 0.0
  }
  param {
    lr_mult: 0.0
    decay_mult: 0.0
  }
  bn_param {
    sync_forward: false
    moving_average: true
    decay: 0.99
    scale_filler {
      type: "constant"
      value: 1.0
    }
    shift_filler {
      type: "constant"
      value: 0.0
    }
  }
}
layer {
  name: "c6.way1.poly1.path1.3x1.relu"
  type: "ReLU"
  bottom: "c6.way1.poly1.path1.3x1"
  top: "c6.way1.poly1.path1.3x1"
}
layer {
  name: "c6.way1.poly1.path1.1x3.conv"
  type: "Convolution"
  bottom: "c6.way1.poly1.path1.3x1"
  top: "c6.way1.poly1.path1.1x3.conv"
  param {
    lr_mult: 1.0
    decay_mult: 1.0
  }
  convolution_param {
    num_output: 256
    bias_term: false
    weight_filler {
      type: "xavier"
    }
    bias_filler {
      type: "constant"
      value: 0.0
    }
    pad_h: 1
    pad_w: 0
    kernel_h: 3
    kernel_w: 1
    stride_h: 1
    stride_w: 1
  }
}
layer {
  name: "c6.way1.poly1.path1.1x3.bn"
  type: "BN"
  bottom: "c6.way1.poly1.path1.1x3.conv"
  top: "c6.way1.poly1.path1.1x3"
  param {
    lr_mult: 1.0
    decay_mult: 0.0
  }
  param {
    lr_mult: 1.0
    decay_mult: 0.0
  }
  param {
    lr_mult: 0.0
    decay_mult: 0.0
  }
  param {
    lr_mult: 0.0
    decay_mult: 0.0
  }
  bn_param {
    sync_forward: false
    moving_average: true
    decay: 0.99
    scale_filler {
      type: "constant"
      value: 1.0
    }
    shift_filler {
      type: "constant"
      value: 0.0
    }
  }
}
layer {
  name: "c6.way1.poly1.path1.1x3.relu"
  type: "ReLU"
  bottom: "c6.way1.poly1.path1.1x3"
  top: "c6.way1.poly1.path1.1x3"
}
layer {
  name: "c6.way1.poly1.path2.1x1.conv"
  type: "Convolution"
  bottom: "c5"
  top: "c6.way1.poly1.path2.1x1.conv"
  param {
    lr_mult: 1.0
    decay_mult: 1.0
  }
  convolution_param {
    num_output: 192
    bias_term: false
    weight_filler {
      type: "xavier"
    }
    bias_filler {
      type: "constant"
      value: 0.0
    }
    pad_h: 0
    pad_w: 0
    kernel_h: 1
    kernel_w: 1
    stride_h: 1
    stride_w: 1
  }
}
layer {
  name: "c6.way1.poly1.path2.1x1.bn"
  type: "BN"
  bottom: "c6.way1.poly1.path2.1x1.conv"
  top: "c6.way1.poly1.path2.1x1"
  param {
    lr_mult: 1.0
    decay_mult: 0.0
  }
  param {
    lr_mult: 1.0
    decay_mult: 0.0
  }
  param {
    lr_mult: 0.0
    decay_mult: 0.0
  }
  param {
    lr_mult: 0.0
    decay_mult: 0.0
  }
  bn_param {
    sync_forward: false
    moving_average: true
    decay: 0.99
    scale_filler {
      type: "constant"
      value: 1.0
    }
    shift_filler {
      type: "constant"
      value: 0.0
    }
  }
}
layer {
  name: "c6.way1.poly1.path2.1x1.relu"
  type: "ReLU"
  bottom: "c6.way1.poly1.path2.1x1"
  top: "c6.way1.poly1.path2.1x1"
}
layer {
  name: "c6.way1.poly1.concat"
  type: "Concat"
  bottom: "c6.way1.poly1.path1.1x3"
  bottom: "c6.way1.poly1.path2.1x1"
  top: "c6.way1.poly1.concat"
}
layer {
  name: "c6.way1.poly1.1x1.conv"
  type: "Convolution"
  bottom: "c6.way1.poly1.concat"
  top: "c6.way1.poly1.1x1.conv"
  param {
    lr_mult: 1.0
    decay_mult: 1.0
  }
  convolution_param {
    num_output: 2048
    bias_term: false
    weight_filler {
      type: "xavier"
    }
    bias_filler {
      type: "constant"
      value: 0.0
    }
    pad_h: 0
    pad_w: 0
    kernel_h: 1
    kernel_w: 1
    stride_h: 1
    stride_w: 1
  }
}
layer {
  name: "c6.way1.poly1.1x1.bn"
  type: "BN"
  bottom: "c6.way1.poly1.1x1.conv"
  top: "c6.way1.poly1"
  param {
    lr_mult: 1.0
    decay_mult: 0.0
  }
  param {
    lr_mult: 1.0
    decay_mult: 0.0
  }
  param {
    lr_mult: 0.0
    decay_mult: 0.0
  }
  param {
    lr_mult: 0.0
    decay_mult: 0.0
  }
  bn_param {
    sync_forward: false
    moving_average: true
    decay: 0.99
    scale_filler {
      type: "constant"
      value: 1.0
    }
    shift_filler {
      type: "constant"
      value: 0.0
    }
  }
}
layer {
  name: "c6.elt"
  type: "Eltwise"
  bottom: "c5"
  bottom: "c6.way1.poly1"
  top: "c6"
  eltwise_param {
    operation: SUM
    coeff: 1
    coeff: 0.3
  }
}
layer {
  name: "c6.relu"
  type: "ReLU"
  bottom: "c6"
  top: "c6"
}
layer {
  name: "c7.way1.poly1.path1.1x1.conv"
  type: "Convolution"
  bottom: "c6"
  top: "c7.way1.poly1.path1.1x1.conv"
  param {
    lr_mult: 1.0
    decay_mult: 1.0
  }
  convolution_param {
    num_output: 192
    bias_term: false
    weight_filler {
      type: "xavier"
    }
    bias_filler {
      type: "constant"
      value: 0.0
    }
    pad_h: 0
    pad_w: 0
    kernel_h: 1
    kernel_w: 1
    stride_h: 1
    stride_w: 1
  }
}
layer {
  name: "c7.way1.poly1.path1.1x1.bn"
  type: "BN"
  bottom: "c7.way1.poly1.path1.1x1.conv"
  top: "c7.way1.poly1.path1.1x1"
  param {
    lr_mult: 1.0
    decay_mult: 0.0
  }
  param {
    lr_mult: 1.0
    decay_mult: 0.0
  }
  param {
    lr_mult: 0.0
    decay_mult: 0.0
  }
  param {
    lr_mult: 0.0
    decay_mult: 0.0
  }
  bn_param {
    sync_forward: false
    moving_average: true
    decay: 0.99
    scale_filler {
      type: "constant"
      value: 1.0
    }
    shift_filler {
      type: "constant"
      value: 0.0
    }
  }
}
layer {
  name: "c7.way1.poly1.path1.1x1.relu"
  type: "ReLU"
  bottom: "c7.way1.poly1.path1.1x1"
  top: "c7.way1.poly1.path1.1x1"
}
layer {
  name: "c7.way1.poly1.path1.3x1.conv"
  type: "Convolution"
  bottom: "c7.way1.poly1.path1.1x1"
  top: "c7.way1.poly1.path1.3x1.conv"
  param {
    lr_mult: 1.0
    decay_mult: 1.0
  }
  convolution_param {
    num_output: 224
    bias_term: false
    weight_filler {
      type: "xavier"
    }
    bias_filler {
      type: "constant"
      value: 0.0
    }
    pad_h: 0
    pad_w: 1
    kernel_h: 1
    kernel_w: 3
    stride_h: 1
    stride_w: 1
  }
}
layer {
  name: "c7.way1.poly1.path1.3x1.bn"
  type: "BN"
  bottom: "c7.way1.poly1.path1.3x1.conv"
  top: "c7.way1.poly1.path1.3x1"
  param {
    lr_mult: 1.0
    decay_mult: 0.0
  }
  param {
    lr_mult: 1.0
    decay_mult: 0.0
  }
  param {
    lr_mult: 0.0
    decay_mult: 0.0
  }
  param {
    lr_mult: 0.0
    decay_mult: 0.0
  }
  bn_param {
    sync_forward: false
    moving_average: true
    decay: 0.99
    scale_filler {
      type: "constant"
      value: 1.0
    }
    shift_filler {
      type: "constant"
      value: 0.0
    }
  }
}
layer {
  name: "c7.way1.poly1.path1.3x1.relu"
  type: "ReLU"
  bottom: "c7.way1.poly1.path1.3x1"
  top: "c7.way1.poly1.path1.3x1"
}
layer {
  name: "c7.way1.poly1.path1.1x3.conv"
  type: "Convolution"
  bottom: "c7.way1.poly1.path1.3x1"
  top: "c7.way1.poly1.path1.1x3.conv"
  param {
    lr_mult: 1.0
    decay_mult: 1.0
  }
  convolution_param {
    num_output: 256
    bias_term: false
    weight_filler {
      type: "xavier"
    }
    bias_filler {
      type: "constant"
      value: 0.0
    }
    pad_h: 1
    pad_w: 0
    kernel_h: 3
    kernel_w: 1
    stride_h: 1
    stride_w: 1
  }
}
layer {
  name: "c7.way1.poly1.path1.1x3.bn"
  type: "BN"
  bottom: "c7.way1.poly1.path1.1x3.conv"
  top: "c7.way1.poly1.path1.1x3"
  param {
    lr_mult: 1.0
    decay_mult: 0.0
  }
  param {
    lr_mult: 1.0
    decay_mult: 0.0
  }
  param {
    lr_mult: 0.0
    decay_mult: 0.0
  }
  param {
    lr_mult: 0.0
    decay_mult: 0.0
  }
  bn_param {
    sync_forward: false
    moving_average: true
    decay: 0.99
    scale_filler {
      type: "constant"
      value: 1.0
    }
    shift_filler {
      type: "constant"
      value: 0.0
    }
  }
}
layer {
  name: "c7.way1.poly1.path1.1x3.relu"
  type: "ReLU"
  bottom: "c7.way1.poly1.path1.1x3"
  top: "c7.way1.poly1.path1.1x3"
}
layer {
  name: "c7.way1.poly1.path2.1x1.conv"
  type: "Convolution"
  bottom: "c6"
  top: "c7.way1.poly1.path2.1x1.conv"
  param {
    lr_mult: 1.0
    decay_mult: 1.0
  }
  convolution_param {
    num_output: 192
    bias_term: false
    weight_filler {
      type: "xavier"
    }
    bias_filler {
      type: "constant"
      value: 0.0
    }
    pad_h: 0
    pad_w: 0
    kernel_h: 1
    kernel_w: 1
    stride_h: 1
    stride_w: 1
  }
}
layer {
  name: "c7.way1.poly1.path2.1x1.bn"
  type: "BN"
  bottom: "c7.way1.poly1.path2.1x1.conv"
  top: "c7.way1.poly1.path2.1x1"
  param {
    lr_mult: 1.0
    decay_mult: 0.0
  }
  param {
    lr_mult: 1.0
    decay_mult: 0.0
  }
  param {
    lr_mult: 0.0
    decay_mult: 0.0
  }
  param {
    lr_mult: 0.0
    decay_mult: 0.0
  }
  bn_param {
    sync_forward: false
    moving_average: true
    decay: 0.99
    scale_filler {
      type: "constant"
      value: 1.0
    }
    shift_filler {
      type: "constant"
      value: 0.0
    }
  }
}
layer {
  name: "c7.way1.poly1.path2.1x1.relu"
  type: "ReLU"
  bottom: "c7.way1.poly1.path2.1x1"
  top: "c7.way1.poly1.path2.1x1"
}
layer {
  name: "c7.way1.poly1.concat"
  type: "Concat"
  bottom: "c7.way1.poly1.path1.1x3"
  bottom: "c7.way1.poly1.path2.1x1"
  top: "c7.way1.poly1.concat"
}
layer {
  name: "c7.way1.poly1.1x1.conv"
  type: "Convolution"
  bottom: "c7.way1.poly1.concat"
  top: "c7.way1.poly1.1x1.conv"
  param {
    lr_mult: 1.0
    decay_mult: 1.0
  }
  convolution_param {
    num_output: 2048
    bias_term: false
    weight_filler {
      type: "xavier"
    }
    bias_filler {
      type: "constant"
      value: 0.0
    }
    pad_h: 0
    pad_w: 0
    kernel_h: 1
    kernel_w: 1
    stride_h: 1
    stride_w: 1
  }
}
layer {
  name: "c7.way1.poly1.1x1.bn"
  type: "BN"
  bottom: "c7.way1.poly1.1x1.conv"
  top: "c7.way1.poly1"
  param {
    lr_mult: 1.0
    decay_mult: 0.0
  }
  param {
    lr_mult: 1.0
    decay_mult: 0.0
  }
  param {
    lr_mult: 0.0
    decay_mult: 0.0
  }
  param {
    lr_mult: 0.0
    decay_mult: 0.0
  }
  bn_param {
    sync_forward: false
    moving_average: true
    decay: 0.99
    scale_filler {
      type: "constant"
      value: 1.0
    }
    shift_filler {
      type: "constant"
      value: 0.0
    }
  }
}
layer {
  name: "c7.elt"
  type: "Eltwise"
  bottom: "c6"
  bottom: "c7.way1.poly1"
  top: "c7"
  eltwise_param {
    operation: SUM
    coeff: 1
    coeff: 0.3
  }
}
layer {
  name: "c7.relu"
  type: "ReLU"
  bottom: "c7"
  top: "c7"
}
layer {
  name: "c8.way1.poly1.path1.1x1.conv"
  type: "Convolution"
  bottom: "c7"
  top: "c8.way1.poly1.path1.1x1.conv"
  param {
    lr_mult: 1.0
    decay_mult: 1.0
  }
  convolution_param {
    num_output: 192
    bias_term: false
    weight_filler {
      type: "xavier"
    }
    bias_filler {
      type: "constant"
      value: 0.0
    }
    pad_h: 0
    pad_w: 0
    kernel_h: 1
    kernel_w: 1
    stride_h: 1
    stride_w: 1
  }
}
layer {
  name: "c8.way1.poly1.path1.1x1.bn"
  type: "BN"
  bottom: "c8.way1.poly1.path1.1x1.conv"
  top: "c8.way1.poly1.path1.1x1"
  param {
    lr_mult: 1.0
    decay_mult: 0.0
  }
  param {
    lr_mult: 1.0
    decay_mult: 0.0
  }
  param {
    lr_mult: 0.0
    decay_mult: 0.0
  }
  param {
    lr_mult: 0.0
    decay_mult: 0.0
  }
  bn_param {
    sync_forward: false
    moving_average: true
    decay: 0.99
    scale_filler {
      type: "constant"
      value: 1.0
    }
    shift_filler {
      type: "constant"
      value: 0.0
    }
  }
}
layer {
  name: "c8.way1.poly1.path1.1x1.relu"
  type: "ReLU"
  bottom: "c8.way1.poly1.path1.1x1"
  top: "c8.way1.poly1.path1.1x1"
}
layer {
  name: "c8.way1.poly1.path1.3x1.conv"
  type: "Convolution"
  bottom: "c8.way1.poly1.path1.1x1"
  top: "c8.way1.poly1.path1.3x1.conv"
  param {
    lr_mult: 1.0
    decay_mult: 1.0
  }
  convolution_param {
    num_output: 224
    bias_term: false
    weight_filler {
      type: "xavier"
    }
    bias_filler {
      type: "constant"
      value: 0.0
    }
    pad_h: 0
    pad_w: 1
    kernel_h: 1
    kernel_w: 3
    stride_h: 1
    stride_w: 1
  }
}
layer {
  name: "c8.way1.poly1.path1.3x1.bn"
  type: "BN"
  bottom: "c8.way1.poly1.path1.3x1.conv"
  top: "c8.way1.poly1.path1.3x1"
  param {
    lr_mult: 1.0
    decay_mult: 0.0
  }
  param {
    lr_mult: 1.0
    decay_mult: 0.0
  }
  param {
    lr_mult: 0.0
    decay_mult: 0.0
  }
  param {
    lr_mult: 0.0
    decay_mult: 0.0
  }
  bn_param {
    sync_forward: false
    moving_average: true
    decay: 0.99
    scale_filler {
      type: "constant"
      value: 1.0
    }
    shift_filler {
      type: "constant"
      value: 0.0
    }
  }
}
layer {
  name: "c8.way1.poly1.path1.3x1.relu"
  type: "ReLU"
  bottom: "c8.way1.poly1.path1.3x1"
  top: "c8.way1.poly1.path1.3x1"
}
layer {
  name: "c8.way1.poly1.path1.1x3.conv"
  type: "Convolution"
  bottom: "c8.way1.poly1.path1.3x1"
  top: "c8.way1.poly1.path1.1x3.conv"
  param {
    lr_mult: 1.0
    decay_mult: 1.0
  }
  convolution_param {
    num_output: 256
    bias_term: false
    weight_filler {
      type: "xavier"
    }
    bias_filler {
      type: "constant"
      value: 0.0
    }
    pad_h: 1
    pad_w: 0
    kernel_h: 3
    kernel_w: 1
    stride_h: 1
    stride_w: 1
  }
}
layer {
  name: "c8.way1.poly1.path1.1x3.bn"
  type: "BN"
  bottom: "c8.way1.poly1.path1.1x3.conv"
  top: "c8.way1.poly1.path1.1x3"
  param {
    lr_mult: 1.0
    decay_mult: 0.0
  }
  param {
    lr_mult: 1.0
    decay_mult: 0.0
  }
  param {
    lr_mult: 0.0
    decay_mult: 0.0
  }
  param {
    lr_mult: 0.0
    decay_mult: 0.0
  }
  bn_param {
    sync_forward: false
    moving_average: true
    decay: 0.99
    scale_filler {
      type: "constant"
      value: 1.0
    }
    shift_filler {
      type: "constant"
      value: 0.0
    }
  }
}
layer {
  name: "c8.way1.poly1.path1.1x3.relu"
  type: "ReLU"
  bottom: "c8.way1.poly1.path1.1x3"
  top: "c8.way1.poly1.path1.1x3"
}
layer {
  name: "c8.way1.poly1.path2.1x1.conv"
  type: "Convolution"
  bottom: "c7"
  top: "c8.way1.poly1.path2.1x1.conv"
  param {
    lr_mult: 1.0
    decay_mult: 1.0
  }
  convolution_param {
    num_output: 192
    bias_term: false
    weight_filler {
      type: "xavier"
    }
    bias_filler {
      type: "constant"
      value: 0.0
    }
    pad_h: 0
    pad_w: 0
    kernel_h: 1
    kernel_w: 1
    stride_h: 1
    stride_w: 1
  }
}
layer {
  name: "c8.way1.poly1.path2.1x1.bn"
  type: "BN"
  bottom: "c8.way1.poly1.path2.1x1.conv"
  top: "c8.way1.poly1.path2.1x1"
  param {
    lr_mult: 1.0
    decay_mult: 0.0
  }
  param {
    lr_mult: 1.0
    decay_mult: 0.0
  }
  param {
    lr_mult: 0.0
    decay_mult: 0.0
  }
  param {
    lr_mult: 0.0
    decay_mult: 0.0
  }
  bn_param {
    sync_forward: false
    moving_average: true
    decay: 0.99
    scale_filler {
      type: "constant"
      value: 1.0
    }
    shift_filler {
      type: "constant"
      value: 0.0
    }
  }
}
layer {
  name: "c8.way1.poly1.path2.1x1.relu"
  type: "ReLU"
  bottom: "c8.way1.poly1.path2.1x1"
  top: "c8.way1.poly1.path2.1x1"
}
layer {
  name: "c8.way1.poly1.concat"
  type: "Concat"
  bottom: "c8.way1.poly1.path1.1x3"
  bottom: "c8.way1.poly1.path2.1x1"
  top: "c8.way1.poly1.concat"
}
layer {
  name: "c8.way1.poly1.1x1.conv"
  type: "Convolution"
  bottom: "c8.way1.poly1.concat"
  top: "c8.way1.poly1.1x1.conv"
  param {
    lr_mult: 1.0
    decay_mult: 1.0
  }
  convolution_param {
    num_output: 2048
    bias_term: false
    weight_filler {
      type: "xavier"
    }
    bias_filler {
      type: "constant"
      value: 0.0
    }
    pad_h: 0
    pad_w: 0
    kernel_h: 1
    kernel_w: 1
    stride_h: 1
    stride_w: 1
  }
}
layer {
  name: "c8.way1.poly1.1x1.bn"
  type: "BN"
  bottom: "c8.way1.poly1.1x1.conv"
  top: "c8.way1.poly1"
  param {
    lr_mult: 1.0
    decay_mult: 0.0
  }
  param {
    lr_mult: 1.0
    decay_mult: 0.0
  }
  param {
    lr_mult: 0.0
    decay_mult: 0.0
  }
  param {
    lr_mult: 0.0
    decay_mult: 0.0
  }
  bn_param {
    sync_forward: false
    moving_average: true
    decay: 0.99
    scale_filler {
      type: "constant"
      value: 1.0
    }
    shift_filler {
      type: "constant"
      value: 0.0
    }
  }
}
layer {
  name: "c8.elt"
  type: "Eltwise"
  bottom: "c7"
  bottom: "c8.way1.poly1"
  top: "c8"
  eltwise_param {
    operation: SUM
    coeff: 1
    coeff: 0.3
  }
}
layer {
  name: "c8.relu"
  type: "ReLU"
  bottom: "c8"
  top: "c8"
}
layer {
  name: "c9.way1.poly1.path1.1x1.conv"
  type: "Convolution"
  bottom: "c8"
  top: "c9.way1.poly1.path1.1x1.conv"
  param {
    lr_mult: 1.0
    decay_mult: 1.0
  }
  convolution_param {
    num_output: 192
    bias_term: false
    weight_filler {
      type: "xavier"
    }
    bias_filler {
      type: "constant"
      value: 0.0
    }
    pad_h: 0
    pad_w: 0
    kernel_h: 1
    kernel_w: 1
    stride_h: 1
    stride_w: 1
  }
}
layer {
  name: "c9.way1.poly1.path1.1x1.bn"
  type: "BN"
  bottom: "c9.way1.poly1.path1.1x1.conv"
  top: "c9.way1.poly1.path1.1x1"
  param {
    lr_mult: 1.0
    decay_mult: 0.0
  }
  param {
    lr_mult: 1.0
    decay_mult: 0.0
  }
  param {
    lr_mult: 0.0
    decay_mult: 0.0
  }
  param {
    lr_mult: 0.0
    decay_mult: 0.0
  }
  bn_param {
    sync_forward: false
    moving_average: true
    decay: 0.99
    scale_filler {
      type: "constant"
      value: 1.0
    }
    shift_filler {
      type: "constant"
      value: 0.0
    }
  }
}
layer {
  name: "c9.way1.poly1.path1.1x1.relu"
  type: "ReLU"
  bottom: "c9.way1.poly1.path1.1x1"
  top: "c9.way1.poly1.path1.1x1"
}
layer {
  name: "c9.way1.poly1.path1.3x1.conv"
  type: "Convolution"
  bottom: "c9.way1.poly1.path1.1x1"
  top: "c9.way1.poly1.path1.3x1.conv"
  param {
    lr_mult: 1.0
    decay_mult: 1.0
  }
  convolution_param {
    num_output: 224
    bias_term: false
    weight_filler {
      type: "xavier"
    }
    bias_filler {
      type: "constant"
      value: 0.0
    }
    pad_h: 0
    pad_w: 1
    kernel_h: 1
    kernel_w: 3
    stride_h: 1
    stride_w: 1
  }
}
layer {
  name: "c9.way1.poly1.path1.3x1.bn"
  type: "BN"
  bottom: "c9.way1.poly1.path1.3x1.conv"
  top: "c9.way1.poly1.path1.3x1"
  param {
    lr_mult: 1.0
    decay_mult: 0.0
  }
  param {
    lr_mult: 1.0
    decay_mult: 0.0
  }
  param {
    lr_mult: 0.0
    decay_mult: 0.0
  }
  param {
    lr_mult: 0.0
    decay_mult: 0.0
  }
  bn_param {
    sync_forward: false
    moving_average: true
    decay: 0.99
    scale_filler {
      type: "constant"
      value: 1.0
    }
    shift_filler {
      type: "constant"
      value: 0.0
    }
  }
}
layer {
  name: "c9.way1.poly1.path1.3x1.relu"
  type: "ReLU"
  bottom: "c9.way1.poly1.path1.3x1"
  top: "c9.way1.poly1.path1.3x1"
}
layer {
  name: "c9.way1.poly1.path1.1x3.conv"
  type: "Convolution"
  bottom: "c9.way1.poly1.path1.3x1"
  top: "c9.way1.poly1.path1.1x3.conv"
  param {
    lr_mult: 1.0
    decay_mult: 1.0
  }
  convolution_param {
    num_output: 256
    bias_term: false
    weight_filler {
      type: "xavier"
    }
    bias_filler {
      type: "constant"
      value: 0.0
    }
    pad_h: 1
    pad_w: 0
    kernel_h: 3
    kernel_w: 1
    stride_h: 1
    stride_w: 1
  }
}
layer {
  name: "c9.way1.poly1.path1.1x3.bn"
  type: "BN"
  bottom: "c9.way1.poly1.path1.1x3.conv"
  top: "c9.way1.poly1.path1.1x3"
  param {
    lr_mult: 1.0
    decay_mult: 0.0
  }
  param {
    lr_mult: 1.0
    decay_mult: 0.0
  }
  param {
    lr_mult: 0.0
    decay_mult: 0.0
  }
  param {
    lr_mult: 0.0
    decay_mult: 0.0
  }
  bn_param {
    sync_forward: false
    moving_average: true
    decay: 0.99
    scale_filler {
      type: "constant"
      value: 1.0
    }
    shift_filler {
      type: "constant"
      value: 0.0
    }
  }
}
layer {
  name: "c9.way1.poly1.path1.1x3.relu"
  type: "ReLU"
  bottom: "c9.way1.poly1.path1.1x3"
  top: "c9.way1.poly1.path1.1x3"
}
layer {
  name: "c9.way1.poly1.path2.1x1.conv"
  type: "Convolution"
  bottom: "c8"
  top: "c9.way1.poly1.path2.1x1.conv"
  param {
    lr_mult: 1.0
    decay_mult: 1.0
  }
  convolution_param {
    num_output: 192
    bias_term: false
    weight_filler {
      type: "xavier"
    }
    bias_filler {
      type: "constant"
      value: 0.0
    }
    pad_h: 0
    pad_w: 0
    kernel_h: 1
    kernel_w: 1
    stride_h: 1
    stride_w: 1
  }
}
layer {
  name: "c9.way1.poly1.path2.1x1.bn"
  type: "BN"
  bottom: "c9.way1.poly1.path2.1x1.conv"
  top: "c9.way1.poly1.path2.1x1"
  param {
    lr_mult: 1.0
    decay_mult: 0.0
  }
  param {
    lr_mult: 1.0
    decay_mult: 0.0
  }
  param {
    lr_mult: 0.0
    decay_mult: 0.0
  }
  param {
    lr_mult: 0.0
    decay_mult: 0.0
  }
  bn_param {
    sync_forward: false
    moving_average: true
    decay: 0.99
    scale_filler {
      type: "constant"
      value: 1.0
    }
    shift_filler {
      type: "constant"
      value: 0.0
    }
  }
}
layer {
  name: "c9.way1.poly1.path2.1x1.relu"
  type: "ReLU"
  bottom: "c9.way1.poly1.path2.1x1"
  top: "c9.way1.poly1.path2.1x1"
}
layer {
  name: "c9.way1.poly1.concat"
  type: "Concat"
  bottom: "c9.way1.poly1.path1.1x3"
  bottom: "c9.way1.poly1.path2.1x1"
  top: "c9.way1.poly1.concat"
}
layer {
  name: "c9.way1.poly1.1x1.conv"
  type: "Convolution"
  bottom: "c9.way1.poly1.concat"
  top: "c9.way1.poly1.1x1.conv"
  param {
    lr_mult: 1.0
    decay_mult: 1.0
  }
  convolution_param {
    num_output: 2048
    bias_term: false
    weight_filler {
      type: "xavier"
    }
    bias_filler {
      type: "constant"
      value: 0.0
    }
    pad_h: 0
    pad_w: 0
    kernel_h: 1
    kernel_w: 1
    stride_h: 1
    stride_w: 1
  }
}
layer {
  name: "c9.way1.poly1.1x1.bn"
  type: "BN"
  bottom: "c9.way1.poly1.1x1.conv"
  top: "c9.way1.poly1"
  param {
    lr_mult: 1.0
    decay_mult: 0.0
  }
  param {
    lr_mult: 1.0
    decay_mult: 0.0
  }
  param {
    lr_mult: 0.0
    decay_mult: 0.0
  }
  param {
    lr_mult: 0.0
    decay_mult: 0.0
  }
  bn_param {
    sync_forward: false
    moving_average: true
    decay: 0.99
    scale_filler {
      type: "constant"
      value: 1.0
    }
    shift_filler {
      type: "constant"
      value: 0.0
    }
  }
}
layer {
  name: "c9.elt"
  type: "Eltwise"
  bottom: "c8"
  bottom: "c9.way1.poly1"
  top: "c9"
  eltwise_param {
    operation: SUM
    coeff: 1
    coeff: 0.3
  }
}
layer {
  name: "c9.relu"
  type: "ReLU"
  bottom: "c9"
  top: "c9"
}
layer {
  name: "c10.way1.poly1.path1.1x1.conv"
  type: "Convolution"
  bottom: "c9"
  top: "c10.way1.poly1.path1.1x1.conv"
  param {
    lr_mult: 1.0
    decay_mult: 1.0
  }
  convolution_param {
    num_output: 192
    bias_term: false
    weight_filler {
      type: "xavier"
    }
    bias_filler {
      type: "constant"
      value: 0.0
    }
    pad_h: 0
    pad_w: 0
    kernel_h: 1
    kernel_w: 1
    stride_h: 1
    stride_w: 1
  }
}
layer {
  name: "c10.way1.poly1.path1.1x1.bn"
  type: "BN"
  bottom: "c10.way1.poly1.path1.1x1.conv"
  top: "c10.way1.poly1.path1.1x1"
  param {
    lr_mult: 1.0
    decay_mult: 0.0
  }
  param {
    lr_mult: 1.0
    decay_mult: 0.0
  }
  param {
    lr_mult: 0.0
    decay_mult: 0.0
  }
  param {
    lr_mult: 0.0
    decay_mult: 0.0
  }
  bn_param {
    sync_forward: false
    moving_average: true
    decay: 0.99
    scale_filler {
      type: "constant"
      value: 1.0
    }
    shift_filler {
      type: "constant"
      value: 0.0
    }
  }
}
layer {
  name: "c10.way1.poly1.path1.1x1.relu"
  type: "ReLU"
  bottom: "c10.way1.poly1.path1.1x1"
  top: "c10.way1.poly1.path1.1x1"
}
layer {
  name: "c10.way1.poly1.path1.3x1.conv"
  type: "Convolution"
  bottom: "c10.way1.poly1.path1.1x1"
  top: "c10.way1.poly1.path1.3x1.conv"
  param {
    lr_mult: 1.0
    decay_mult: 1.0
  }
  convolution_param {
    num_output: 224
    bias_term: false
    weight_filler {
      type: "xavier"
    }
    bias_filler {
      type: "constant"
      value: 0.0
    }
    pad_h: 0
    pad_w: 1
    kernel_h: 1
    kernel_w: 3
    stride_h: 1
    stride_w: 1
  }
}
layer {
  name: "c10.way1.poly1.path1.3x1.bn"
  type: "BN"
  bottom: "c10.way1.poly1.path1.3x1.conv"
  top: "c10.way1.poly1.path1.3x1"
  param {
    lr_mult: 1.0
    decay_mult: 0.0
  }
  param {
    lr_mult: 1.0
    decay_mult: 0.0
  }
  param {
    lr_mult: 0.0
    decay_mult: 0.0
  }
  param {
    lr_mult: 0.0
    decay_mult: 0.0
  }
  bn_param {
    sync_forward: false
    moving_average: true
    decay: 0.99
    scale_filler {
      type: "constant"
      value: 1.0
    }
    shift_filler {
      type: "constant"
      value: 0.0
    }
  }
}
layer {
  name: "c10.way1.poly1.path1.3x1.relu"
  type: "ReLU"
  bottom: "c10.way1.poly1.path1.3x1"
  top: "c10.way1.poly1.path1.3x1"
}
layer {
  name: "c10.way1.poly1.path1.1x3.conv"
  type: "Convolution"
  bottom: "c10.way1.poly1.path1.3x1"
  top: "c10.way1.poly1.path1.1x3.conv"
  param {
    lr_mult: 1.0
    decay_mult: 1.0
  }
  convolution_param {
    num_output: 256
    bias_term: false
    weight_filler {
      type: "xavier"
    }
    bias_filler {
      type: "constant"
      value: 0.0
    }
    pad_h: 1
    pad_w: 0
    kernel_h: 3
    kernel_w: 1
    stride_h: 1
    stride_w: 1
  }
}
layer {
  name: "c10.way1.poly1.path1.1x3.bn"
  type: "BN"
  bottom: "c10.way1.poly1.path1.1x3.conv"
  top: "c10.way1.poly1.path1.1x3"
  param {
    lr_mult: 1.0
    decay_mult: 0.0
  }
  param {
    lr_mult: 1.0
    decay_mult: 0.0
  }
  param {
    lr_mult: 0.0
    decay_mult: 0.0
  }
  param {
    lr_mult: 0.0
    decay_mult: 0.0
  }
  bn_param {
    sync_forward: false
    moving_average: true
    decay: 0.99
    scale_filler {
      type: "constant"
      value: 1.0
    }
    shift_filler {
      type: "constant"
      value: 0.0
    }
  }
}
layer {
  name: "c10.way1.poly1.path1.1x3.relu"
  type: "ReLU"
  bottom: "c10.way1.poly1.path1.1x3"
  top: "c10.way1.poly1.path1.1x3"
}
layer {
  name: "c10.way1.poly1.path2.1x1.conv"
  type: "Convolution"
  bottom: "c9"
  top: "c10.way1.poly1.path2.1x1.conv"
  param {
    lr_mult: 1.0
    decay_mult: 1.0
  }
  convolution_param {
    num_output: 192
    bias_term: false
    weight_filler {
      type: "xavier"
    }
    bias_filler {
      type: "constant"
      value: 0.0
    }
    pad_h: 0
    pad_w: 0
    kernel_h: 1
    kernel_w: 1
    stride_h: 1
    stride_w: 1
  }
}
layer {
  name: "c10.way1.poly1.path2.1x1.bn"
  type: "BN"
  bottom: "c10.way1.poly1.path2.1x1.conv"
  top: "c10.way1.poly1.path2.1x1"
  param {
    lr_mult: 1.0
    decay_mult: 0.0
  }
  param {
    lr_mult: 1.0
    decay_mult: 0.0
  }
  param {
    lr_mult: 0.0
    decay_mult: 0.0
  }
  param {
    lr_mult: 0.0
    decay_mult: 0.0
  }
  bn_param {
    sync_forward: false
    moving_average: true
    decay: 0.99
    scale_filler {
      type: "constant"
      value: 1.0
    }
    shift_filler {
      type: "constant"
      value: 0.0
    }
  }
}
layer {
  name: "c10.way1.poly1.path2.1x1.relu"
  type: "ReLU"
  bottom: "c10.way1.poly1.path2.1x1"
  top: "c10.way1.poly1.path2.1x1"
}
layer {
  name: "c10.way1.poly1.concat"
  type: "Concat"
  bottom: "c10.way1.poly1.path1.1x3"
  bottom: "c10.way1.poly1.path2.1x1"
  top: "c10.way1.poly1.concat"
}
layer {
  name: "c10.way1.poly1.1x1.conv"
  type: "Convolution"
  bottom: "c10.way1.poly1.concat"
  top: "c10.way1.poly1.1x1.conv"
  param {
    lr_mult: 1.0
    decay_mult: 1.0
  }
  convolution_param {
    num_output: 2048
    bias_term: false
    weight_filler {
      type: "xavier"
    }
    bias_filler {
      type: "constant"
      value: 0.0
    }
    pad_h: 0
    pad_w: 0
    kernel_h: 1
    kernel_w: 1
    stride_h: 1
    stride_w: 1
  }
}
layer {
  name: "c10.way1.poly1.1x1.bn"
  type: "BN"
  bottom: "c10.way1.poly1.1x1.conv"
  top: "c10.way1.poly1"
  param {
    lr_mult: 1.0
    decay_mult: 0.0
  }
  param {
    lr_mult: 1.0
    decay_mult: 0.0
  }
  param {
    lr_mult: 0.0
    decay_mult: 0.0
  }
  param {
    lr_mult: 0.0
    decay_mult: 0.0
  }
  bn_param {
    sync_forward: false
    moving_average: true
    decay: 0.99
    scale_filler {
      type: "constant"
      value: 1.0
    }
    shift_filler {
      type: "constant"
      value: 0.0
    }
  }
}
layer {
  name: "c10.elt"
  type: "Eltwise"
  bottom: "c9"
  bottom: "c10.way1.poly1"
  top: "c10"
  eltwise_param {
    operation: SUM
    coeff: 1
    coeff: 0.3
  }
}
layer {
  name: "c10.relu"
  type: "ReLU"
  bottom: "c10"
  top: "c10"
}
layer {
  name: "dropout1"
  type: "Dropout"
  bottom: "c10"
  top: "c10"
  dropout_param {
    dropout_ratio: 0.5
  }
}
layer {
  name: "feature"
  type: "InnerProduct"
  bottom: "c10"
  top: "feature"
  param {
    lr_mult: 1.0
    decay_mult: 1.0
  }
  param {
    lr_mult: 1.0
    decay_mult: 2.0
  }
  inner_product_param {
    num_output: 256
    weight_filler {
      type: "xavier"
    }
    bias_filler {
      type: "constant"
      value: 0.0
    }
  }
}
layer {
  name: "output"
  type: "Dropout"
  bottom: "feature"
  top: "output"
  dropout_param {
    dropout_ratio: 0.5
  }
}



layer{
  name: "l2norm"
  type: "Normalize"
  bottom: "output"
  top: "output_norm"
  normalize_param {
    coeff: 1.0
  }
}


layer {
  name: "prob2"
  type: "CenterProjection"
  bottom: "output_norm"
  top: "prob2"
  param {
   lr_mult:10
   decay_mult: 1
  }
  center_projection_param {
    num_output: 87020
    weight_filler {
      type: "xavier"
    }
    bias_term: false
    scale: 21.475
  }
}


############# softmax loss ###############
layer {
  name: "coco_loss"
  type: "SoftmaxWithLoss"
  bottom: "prob2"
  bottom: "label"
  top: "coco_loss"
  loss_weight: 1
}

layer {
  name: "acc"
  type: "Accuracy"
  bottom: "prob2"
  bottom: "label"
  top: "acc"
}

layer {
  name: "prob"
  type: "InnerProduct"
  bottom: "output"
  top: "prob"
  param {
   lr_mult:10
   decay_mult: 1
  }
  param {
   lr_mult:10
   decay_mult: 2
  }
  inner_product_param {
    num_output: 87020
    weight_filler {
      type: "gaussian"
      std: 0.001
    }
    bias_filler {
      type: "constant"
      value: 0
    }
  }
}


layer {
  name: "loss2"
  type: "SoftmaxWithLoss"
  bottom: "prob"
  bottom: "label"
  top: "loss2"
  loss_weight: 0.4
}

layer {
  name: "acc2"
  type: "Accuracy"
  bottom: "prob"
  bottom: "label"
  top: "acc2"
}